…
in: ziffer_raw/5_b2.jpg  -  out: ziffer_resize/5_b2.jpg
in: ziffer_raw/9_0_ht3_20210703-024255.jpg  -  out: ziffer_resize/9_0_ht3_20210703-024255.jpg
in: ziffer_raw/NaN_9b_red.jpg  -  out: ziffer_resize/NaN_9b_red.jpg
in: ziffer_raw/6_10_ht6_20210628-164002.jpg  -  out: ziffer_resize/6_10_ht6_20210628-164002.jpg
dig-s0
Workfile does not exists - init model necessary
Loading Model ...
Bulilding model
Model: "sequential"
_________________________________________________________________
Layer (type)                 Output Shape              Param #   
=================================================================
batch_normalization (BatchNo (None, 32, 20, 3)         12        
_________________________________________________________________
conv2d (Conv2D)              (None, 32, 20, 32)        896       
_________________________________________________________________
max_pooling2d (MaxPooling2D) (None, 16, 10, 32)        0         
_________________________________________________________________
conv2d_1 (Conv2D)            (None, 16, 10, 64)        18496     
_________________________________________________________________
max_pooling2d_1 (MaxPooling2 (None, 8, 5, 64)          0         
_________________________________________________________________
conv2d_2 (Conv2D)            (None, 8, 5, 64)          36928     
_________________________________________________________________
max_pooling2d_2 (MaxPooling2 (None, 4, 2, 64)          0         
_________________________________________________________________
flatten (Flatten)            (None, 512)               0         
_________________________________________________________________
dense (Dense)                (None, 512)               262656    
_________________________________________________________________
dense_1 (Dense)              (None, 11)                5643      
=================================================================
Total params: 324,631
Trainable params: 324,625
Non-trainable params: 6
_________________________________________________________________
1711
(1711, 32, 20, 3)
(1711, 11)
(1368, 32, 20, 3)
(343, 32, 20, 3)
Epoch 1/100
  1/342 [..............................] - ETA: 3:12 - loss: 2.2980 - accuracy: 0.0000e+00
…
ziffer_resize/9_D8_2020-08-20_11-32-19.jpg 9 -1
ziffer_resize/9_Ziffer_9_0067.jpg 9 -1
ziffer_resize/NaN_1_digit2_20210722-003847.jpg -1 1
ziffer_resize/NaN_20200912-000236_ROI5.jpg -1 0
ziffer_resize/NaN_6_ROI6_20210218-112840.jpg -1 5
ziffer_resize/NaN_6_dig6_20210629-075007.jpg -1 8
dig-s1
Workfile does not exists - init model necessary
Loading Model ...
Model: "sequential_1"
_________________________________________________________________
Layer (type)                 Output Shape              Param #   
=================================================================
batch_normalization_1 (Batch (None, 32, 20, 3)         12        
_________________________________________________________________
conv2d_3 (Conv2D)            (None, 32, 20, 32)        896       
_________________________________________________________________
max_pooling2d_3 (MaxPooling2 (None, 16, 10, 32)        0         
_________________________________________________________________
conv2d_4 (Conv2D)            (None, 16, 10, 64)        18496     
_________________________________________________________________
max_pooling2d_4 (MaxPooling2 (None, 8, 5, 64)          0         
_________________________________________________________________
conv2d_5 (Conv2D)            (None, 8, 5, 64)          36928     
_________________________________________________________________
max_pooling2d_5 (MaxPooling2 (None, 4, 2, 64)          0         
_________________________________________________________________
flatten_1 (Flatten)          (None, 512)               0         
_________________________________________________________________
dense_2 (Dense)              (None, 256)               131328    
_________________________________________________________________
dense_3 (Dense)              (None, 11)                2827      
=================================================================
Total params: 190,487
Trainable params: 190,481
Non-trainable params: 6
_________________________________________________________________
1711
(1711, 32, 20, 3)
(1711, 11)
(1368, 32, 20, 3)
(343, 32, 20, 3)
Epoch 1/100
  1/342 [..............................] - ETA: 2:50 - loss: 2.4458 - accuracy: 0.0000e+00
…
ziffer_resize/NaN_0_ht6_20210628-182853.jpg -1 9
ziffer_resize/NaN_1_dig4_20210727-204545.jpg -1 1
ziffer_resize/NaN_20200910-012404_ROI5.jpg -1 6
ziffer_resize/NaN_20200910-065522_ROI5.jpg -1 6
ziffer_resize/NaN_20200912-000236_ROI5.jpg -1 0
ziffer_resize/NaN_6_dig6_20210629-075007.jpg -1 8
dig-s2
Workfile does not exists - init model necessary
Loading Model ...
Model: "sequential_2"
_________________________________________________________________
Layer (type)                 Output Shape              Param #   
=================================================================
batch_normalization_2 (Batch (None, 32, 20, 3)         12        
_________________________________________________________________
conv2d_6 (Conv2D)            (None, 32, 20, 32)        896       
_________________________________________________________________
max_pooling2d_6 (MaxPooling2 (None, 16, 10, 32)        0         
_________________________________________________________________
conv2d_7 (Conv2D)            (None, 16, 10, 32)        9248      
_________________________________________________________________
max_pooling2d_7 (MaxPooling2 (None, 8, 5, 32)          0         
_________________________________________________________________
conv2d_8 (Conv2D)            (None, 8, 5, 32)          9248      
_________________________________________________________________
max_pooling2d_8 (MaxPooling2 (None, 4, 2, 32)          0         
_________________________________________________________________
flatten_2 (Flatten)          (None, 256)               0         
_________________________________________________________________
dense_4 (Dense)              (None, 256)               65792     
_________________________________________________________________
dense_5 (Dense)              (None, 11)                2827      
=================================================================
Total params: 88,023
Trainable params: 88,017
Non-trainable params: 6
_________________________________________________________________
1711
(1711, 32, 20, 3)
(1711, 11)
(1368, 32, 20, 3)
(343, 32, 20, 3)
Epoch 1/100
  1/342 [..............................] - ETA: 2:51 - loss: 2.5163 - accuracy: 0.0000e+00
…
ziffer_resize/NaN_Ziffer_NaN_1243.jpg -1 3
ziffer_resize/NaN_Ziffer_NaN_1247.jpg -1 4
ziffer_resize/NaN_Ziffer_NaN_1264.jpg -1 3
ziffer_resize/NaN_Ziffer_NaN_1269.jpg -1 3
ziffer_resize/NaN_Ziffer_NaN_1281.jpg -1 3
ziffer_resize/NaN_Ziffer_NaN_1284.jpg -1 3
ziffer_resize/NaN_Ziffer_NaN_3737.jpg -1 5
dig-s3
Workfile does not exists - init model necessary
Loading Model ...
Model: "sequential_3"
_________________________________________________________________
Layer (type)                 Output Shape              Param #   
=================================================================
batch_normalization_3 (Batch (None, 32, 20, 3)         12        
_________________________________________________________________
conv2d_9 (Conv2D)            (None, 32, 20, 32)        896       
_________________________________________________________________
max_pooling2d_9 (MaxPooling2 (None, 16, 10, 32)        0         
_________________________________________________________________
conv2d_10 (Conv2D)           (None, 16, 10, 32)        9248      
_________________________________________________________________
max_pooling2d_10 (MaxPooling (None, 8, 5, 32)          0         
_________________________________________________________________
conv2d_11 (Conv2D)           (None, 8, 5, 32)          9248      
_________________________________________________________________
max_pooling2d_11 (MaxPooling (None, 4, 2, 32)          0         
_________________________________________________________________
flatten_3 (Flatten)          (None, 256)               0         
_________________________________________________________________
dense_6 (Dense)              (None, 128)               32896     
_________________________________________________________________
dense_7 (Dense)              (None, 11)                1419      
=================================================================
Total params: 53,719
Trainable params: 53,713
Non-trainable params: 6
_________________________________________________________________
1711
(1711, 32, 20, 3)
(1711, 11)
(1368, 32, 20, 3)
(343, 32, 20, 3)
Epoch 1/100
  1/342 [..............................] - ETA: 3:56 - loss: 2.4225 - accuracy: 0.0000e+00
…
