…
in: ziffer_raw/9_9_ROI4_20210309-004454.jpg  -  out: ziffer_resize/9_9_ROI4_20210309-004454.jpg
in: ziffer_raw/5_b2.jpg  -  out: ziffer_resize/5_b2.jpg
in: ziffer_raw/9_0_ht3_20210703-024255.jpg  -  out: ziffer_resize/9_0_ht3_20210703-024255.jpg
in: ziffer_raw/NaN_9b_red.jpg  -  out: ziffer_resize/NaN_9b_red.jpg
in: ziffer_raw/6_10_ht6_20210628-164002.jpg  -  out: ziffer_resize/6_10_ht6_20210628-164002.jpg
dig-s0
File Exists
Model: "sequential"
_________________________________________________________________
Layer (type)                 Output Shape              Param #   
=================================================================
batch_normalization (BatchNo (None, 32, 20, 3)         12        
_________________________________________________________________
conv2d (Conv2D)              (None, 32, 20, 32)        896       
_________________________________________________________________
max_pooling2d (MaxPooling2D) (None, 16, 10, 32)        0         
_________________________________________________________________
conv2d_1 (Conv2D)            (None, 16, 10, 64)        18496     
_________________________________________________________________
max_pooling2d_1 (MaxPooling2 (None, 8, 5, 64)          0         
_________________________________________________________________
conv2d_2 (Conv2D)            (None, 8, 5, 64)          36928     
_________________________________________________________________
max_pooling2d_2 (MaxPooling2 (None, 4, 2, 64)          0         
_________________________________________________________________
flatten (Flatten)            (None, 512)               0         
_________________________________________________________________
dense (Dense)                (None, 512)               262656    
_________________________________________________________________
dense_1 (Dense)              (None, 11)                5643      
=================================================================
Total params: 324,631
Trainable params: 324,625
Non-trainable params: 6
_________________________________________________________________
1711
(1711, 32, 20, 3)
(1711, 11)
(1368, 32, 20, 3)
(343, 32, 20, 3)
Epoch 1/100
  1/342 [..............................] - ETA: 2:31 - loss: 1.7583e-05 - accuracy: 1.0000
…
ziffer_resize/2_2_ht6_20210626-080221.jpg 2 7
ziffer_resize/4_0_ht6_20210627-212552.jpg 4 -1
ziffer_resize/4_0_ht6_20210627-222846.jpg 4 -1
ziffer_resize/4_10_ht6_20210628-105540.jpg 4 -1
ziffer_resize/4_1_ht6_20210627-202210.jpg 4 -1
ziffer_resize/6_ziffer5_2019-11-15_20-41-27.jpg 6 8
ziffer_resize/NaN_20200911-182857_ROI5.jpg -1 3
dig-s1
File Exists
Model: "sequential_1"
_________________________________________________________________
Layer (type)                 Output Shape              Param #   
=================================================================
batch_normalization_1 (Batch (None, 32, 20, 3)         12        
_________________________________________________________________
conv2d_3 (Conv2D)            (None, 32, 20, 32)        896       
_________________________________________________________________
max_pooling2d_3 (MaxPooling2 (None, 16, 10, 32)        0         
_________________________________________________________________
conv2d_4 (Conv2D)            (None, 16, 10, 64)        18496     
_________________________________________________________________
max_pooling2d_4 (MaxPooling2 (None, 8, 5, 64)          0         
_________________________________________________________________
conv2d_5 (Conv2D)            (None, 8, 5, 64)          36928     
_________________________________________________________________
max_pooling2d_5 (MaxPooling2 (None, 4, 2, 64)          0         
_________________________________________________________________
flatten_1 (Flatten)          (None, 512)               0         
_________________________________________________________________
dense_2 (Dense)              (None, 256)               131328    
_________________________________________________________________
dense_3 (Dense)              (None, 11)                2827      
=================================================================
Total params: 190,487
Trainable params: 190,481
Non-trainable params: 6
_________________________________________________________________
1711
(1711, 32, 20, 3)
(1711, 11)
(1368, 32, 20, 3)
(343, 32, 20, 3)
Epoch 1/100
  1/342 [..............................] - ETA: 1:53 - loss: 0.0000e+00 - accuracy: 1.0000
…
ziffer_resize/4.0_dig5_20210924-075240.jpg 4 9
ziffer_resize/4_10_dig4_20210709-181251.jpg 4 -1
ziffer_resize/4_4_dig6_20210724-184309.jpg 4 8
ziffer_resize/7_10_dig6_20210727-150532.jpg 7 -1
ziffer_resize/NaN_0_ht6_20210628-182853.jpg -1 9
ziffer_resize/NaN_5_ht7_20210626-184815.jpg -1 5
ziffer_resize/NaN_6_dig6_20210723-181616.jpg -1 6
dig-s2
File Exists
Model: "sequential_2"
_________________________________________________________________
Layer (type)                 Output Shape              Param #   
=================================================================
batch_normalization_2 (Batch (None, 32, 20, 3)         12        
_________________________________________________________________
conv2d_6 (Conv2D)            (None, 32, 20, 32)        896       
_________________________________________________________________
max_pooling2d_6 (MaxPooling2 (None, 16, 10, 32)        0         
_________________________________________________________________
conv2d_7 (Conv2D)            (None, 16, 10, 32)        9248      
_________________________________________________________________
max_pooling2d_7 (MaxPooling2 (None, 8, 5, 32)          0         
_________________________________________________________________
conv2d_8 (Conv2D)            (None, 8, 5, 32)          9248      
_________________________________________________________________
max_pooling2d_8 (MaxPooling2 (None, 4, 2, 32)          0         
_________________________________________________________________
flatten_2 (Flatten)          (None, 256)               0         
_________________________________________________________________
dense_4 (Dense)              (None, 256)               65792     
_________________________________________________________________
dense_5 (Dense)              (None, 11)                2827      
=================================================================
Total params: 88,023
Trainable params: 88,017
Non-trainable params: 6
_________________________________________________________________
1711
(1711, 32, 20, 3)
(1711, 11)
(1368, 32, 20, 3)
(343, 32, 20, 3)
Epoch 1/100
  1/342 [..............................] - ETA: 2:04 - loss: 2.9802e-08 - accuracy: 1.0000
…
ziffer_resize/2_4_nt7_20210625-205647.jpg 2 -1
ziffer_resize/2_4_nt7_20210625-210138.jpg 2 -1
ziffer_resize/4_10_ht6_20210703-070449.jpg 4 -1
ziffer_resize/5_4_nt7_20210626-060557.jpg 5 -1
ziffer_resize/6_D8_2020-08-19_20-22-27.jpg 6 5
ziffer_resize/7_10_ht6_20210704-095523.jpg 7 -1
ziffer_resize/8.0_LCD_digit_8.jpg 8 6
ziffer_resize/9_10_dig6_20210630-083857.jpg 9 -1
dig-s3
File Exists
Model: "sequential_3"
_________________________________________________________________
Layer (type)                 Output Shape              Param #   
=================================================================
batch_normalization_3 (Batch (None, 32, 20, 3)         12        
_________________________________________________________________
conv2d_9 (Conv2D)            (None, 32, 20, 32)        896       
_________________________________________________________________
max_pooling2d_9 (MaxPooling2 (None, 16, 10, 32)        0         
_________________________________________________________________
conv2d_10 (Conv2D)           (None, 16, 10, 32)        9248      
_________________________________________________________________
max_pooling2d_10 (MaxPooling (None, 8, 5, 32)          0         
_________________________________________________________________
conv2d_11 (Conv2D)           (None, 8, 5, 32)          9248      
_________________________________________________________________
max_pooling2d_11 (MaxPooling (None, 4, 2, 32)          0         
_________________________________________________________________
flatten_3 (Flatten)          (None, 256)               0         
_________________________________________________________________
dense_6 (Dense)              (None, 128)               32896     
_________________________________________________________________
dense_7 (Dense)              (None, 11)                1419      
=================================================================
Total params: 53,719
Trainable params: 53,713
Non-trainable params: 6
_________________________________________________________________
1711
(1711, 32, 20, 3)
(1711, 11)
(1368, 32, 20, 3)
(343, 32, 20, 3)
Epoch 1/100
  1/342 [..............................] - ETA: 2:09 - loss: 0.0000e+00 - accuracy: 1.0000
…
