…
in: ziffer_raw\NaN_Ziffer_NaN_3589.jpg  -  out: ziffer_resize/NaN_Ziffer_NaN_3589.jpg
in: ziffer_raw\NaN_Ziffer_NaN_3606.jpg  -  out: ziffer_resize/NaN_Ziffer_NaN_3606.jpg
in: ziffer_raw\NaN_Ziffer_NaN_3737.jpg  -  out: ziffer_resize/NaN_Ziffer_NaN_3737.jpg
dig-s0
Workfile does not exists - init model necessary
Loading Model ...
Bulilding model
Model: "sequential"
_________________________________________________________________
Layer (type)                 Output Shape              Param #   
=================================================================
batch_normalization (BatchNo (None, 32, 20, 3)         12        
_________________________________________________________________
conv2d (Conv2D)              (None, 32, 20, 32)        896       
_________________________________________________________________
max_pooling2d (MaxPooling2D) (None, 16, 10, 32)        0         
_________________________________________________________________
conv2d_1 (Conv2D)            (None, 16, 10, 64)        18496     
_________________________________________________________________
max_pooling2d_1 (MaxPooling2 (None, 8, 5, 64)          0         
_________________________________________________________________
conv2d_2 (Conv2D)            (None, 8, 5, 64)          36928     
_________________________________________________________________
max_pooling2d_2 (MaxPooling2 (None, 4, 2, 64)          0         
_________________________________________________________________
flatten (Flatten)            (None, 512)               0         
_________________________________________________________________
dense (Dense)                (None, 512)               262656    
_________________________________________________________________
dense_1 (Dense)              (None, 11)                5643      
=================================================================
Total params: 324,631
Trainable params: 324,625
Non-trainable params: 6
_________________________________________________________________
1711
(1711, 32, 20, 3)
(1711, 11)
(1368, 32, 20, 3)
(343, 32, 20, 3)
  1/342 [..............................] - ETA: 2:22 - loss: 2.6612 - accuracy: 0.0000e+00
…
ziffer_resize\NaN_ziffer5_2020-05-02_11-20-06.jpg -1 7
ziffer_resize\NaN_ziffer5_2020-05-14_07-20-06.jpg -1 6
ziffer_resize\NaN_ziffer5_2020-05-16_06-05-08.jpg -1 8
ziffer_resize\NaN_ziffer5_2020-05-18_05-20-11.jpg -1 6
ziffer_resize\NaN_ziffer5_2020-05-20_05-50-14.jpg -1 1
Das ist in Script - Teil 1: dig-s1
dig-s1
Workfile does not exists - init model necessary
Loading Model ...
Model: "sequential_1"
_________________________________________________________________
Layer (type)                 Output Shape              Param #   
=================================================================
batch_normalization_1 (Batch (None, 32, 20, 3)         12        
_________________________________________________________________
conv2d_3 (Conv2D)            (None, 32, 20, 32)        896       
_________________________________________________________________
max_pooling2d_3 (MaxPooling2 (None, 16, 10, 32)        0         
_________________________________________________________________
conv2d_4 (Conv2D)            (None, 16, 10, 64)        18496     
_________________________________________________________________
max_pooling2d_4 (MaxPooling2 (None, 8, 5, 64)          0         
_________________________________________________________________
conv2d_5 (Conv2D)            (None, 8, 5, 64)          36928     
_________________________________________________________________
max_pooling2d_5 (MaxPooling2 (None, 4, 2, 64)          0         
_________________________________________________________________
flatten_1 (Flatten)          (None, 512)               0         
_________________________________________________________________
dense_2 (Dense)              (None, 256)               131328    
_________________________________________________________________
dense_3 (Dense)              (None, 11)                2827      
=================================================================
Total params: 190,487
Trainable params: 190,481
Non-trainable params: 6
_________________________________________________________________
1711
(1711, 32, 20, 3)
(1711, 11)
(1368, 32, 20, 3)
(343, 32, 20, 3)
  1/342 [..............................] - ETA: 1:57 - loss: 2.6312 - accuracy: 0.0000e+00
…
