…
in: ziffer_raw/9_9_ROI4_20210309-004454.jpg  -  out: ziffer_resize/9_9_ROI4_20210309-004454.jpg
in: ziffer_raw/5_b2.jpg  -  out: ziffer_resize/5_b2.jpg
in: ziffer_raw/9_0_ht3_20210703-024255.jpg  -  out: ziffer_resize/9_0_ht3_20210703-024255.jpg
in: ziffer_raw/NaN_9b_red.jpg  -  out: ziffer_resize/NaN_9b_red.jpg
in: ziffer_raw/6_10_ht6_20210628-164002.jpg  -  out: ziffer_resize/6_10_ht6_20210628-164002.jpg
dig-s0
File Exists
Model: "sequential"
_________________________________________________________________
Layer (type)                 Output Shape              Param #   
=================================================================
batch_normalization (BatchNo (None, 32, 20, 3)         12        
_________________________________________________________________
conv2d (Conv2D)              (None, 32, 20, 32)        896       
_________________________________________________________________
max_pooling2d (MaxPooling2D) (None, 16, 10, 32)        0         
_________________________________________________________________
conv2d_1 (Conv2D)            (None, 16, 10, 64)        18496     
_________________________________________________________________
max_pooling2d_1 (MaxPooling2 (None, 8, 5, 64)          0         
_________________________________________________________________
conv2d_2 (Conv2D)            (None, 8, 5, 64)          36928     
_________________________________________________________________
max_pooling2d_2 (MaxPooling2 (None, 4, 2, 64)          0         
_________________________________________________________________
flatten (Flatten)            (None, 512)               0         
_________________________________________________________________
dense (Dense)                (None, 512)               262656    
_________________________________________________________________
dense_1 (Dense)              (None, 11)                5643      
=================================================================
Total params: 324,631
Trainable params: 324,625
Non-trainable params: 6
_________________________________________________________________
1711
(1711, 32, 20, 3)
(1711, 11)
(1368, 32, 20, 3)
(343, 32, 20, 3)
Epoch 1/100
  1/342 [..............................] - ETA: 2:34 - loss: 0.0026 - accuracy: 1.0000
…
342/342 [==============================] - 2s 6ms/step - loss: 0.0048 - accuracy: 0.9984 - val_loss: 0.1210 - val_accuracy: 0.9825
dig-s0
File Exists
ziffer_resize/1_D6_2020-08-23_11-50-46.jpg 1 0
ziffer_resize/7_0_digit3_20210609-040451.jpg 7 -1
ziffer_resize/7_1.jpg 7 -1
ziffer_resize/7_7_ROI1_20210605-094214.jpg 7 1
dig-s1
File Exists
Model: "sequential_1"
_________________________________________________________________
Layer (type)                 Output Shape              Param #   
=================================================================
batch_normalization_1 (Batch (None, 32, 20, 3)         12        
_________________________________________________________________
conv2d_3 (Conv2D)            (None, 32, 20, 32)        896       
_________________________________________________________________
max_pooling2d_3 (MaxPooling2 (None, 16, 10, 32)        0         
_________________________________________________________________
conv2d_4 (Conv2D)            (None, 16, 10, 64)        18496     
_________________________________________________________________
max_pooling2d_4 (MaxPooling2 (None, 8, 5, 64)          0         
_________________________________________________________________
conv2d_5 (Conv2D)            (None, 8, 5, 64)          36928     
_________________________________________________________________
max_pooling2d_5 (MaxPooling2 (None, 4, 2, 64)          0         
_________________________________________________________________
flatten_1 (Flatten)          (None, 512)               0         
_________________________________________________________________
dense_2 (Dense)              (None, 256)               131328    
_________________________________________________________________
dense_3 (Dense)              (None, 11)                2827      
=================================================================
Total params: 190,487
Trainable params: 190,481
Non-trainable params: 6
_________________________________________________________________
1711
(1711, 32, 20, 3)
(1711, 11)
(1368, 32, 20, 3)
(343, 32, 20, 3)
Epoch 1/100
  1/342 [..............................] - ETA: 2:06 - loss: 0.7322 - accuracy: 0.7500
…
ziffer_resize/4_10_ht6_20210703-070449.jpg 4 -1
ziffer_resize/5_5_ROI4_20210418-173416.jpg 5 6
ziffer_resize/8_3_dig4_20210725-094630.jpg 8 -1
ziffer_resize/8_Ziffer_8_0149.jpg 8 9
ziffer_resize/9.0_lcd.jpg 9 4
ziffer_resize/9_D6_2020-08-12_15-09-41.jpg 9 8
ziffer_resize/NaN_10_ROI2_20210225-152704.jpg -1 3
ziffer_resize/NaN_20200820-181642_digit3.jpg -1 8
dig-s2
File Exists
Model: "sequential_2"
_________________________________________________________________
Layer (type)                 Output Shape              Param #   
=================================================================
batch_normalization_2 (Batch (None, 32, 20, 3)         12        
_________________________________________________________________
conv2d_6 (Conv2D)            (None, 32, 20, 32)        896       
_________________________________________________________________
max_pooling2d_6 (MaxPooling2 (None, 16, 10, 32)        0         
_________________________________________________________________
conv2d_7 (Conv2D)            (None, 16, 10, 32)        9248      
_________________________________________________________________
max_pooling2d_7 (MaxPooling2 (None, 8, 5, 32)          0         
_________________________________________________________________
conv2d_8 (Conv2D)            (None, 8, 5, 32)          9248      
_________________________________________________________________
max_pooling2d_8 (MaxPooling2 (None, 4, 2, 32)          0         
_________________________________________________________________
flatten_2 (Flatten)          (None, 256)               0         
_________________________________________________________________
dense_4 (Dense)              (None, 256)               65792     
_________________________________________________________________
dense_5 (Dense)              (None, 11)                2827      
=================================================================
Total params: 88,023
Trainable params: 88,017
Non-trainable params: 6
_________________________________________________________________
1711
(1711, 32, 20, 3)
(1711, 11)
(1368, 32, 20, 3)
(343, 32, 20, 3)
Epoch 1/100
  1/342 [..............................] - ETA: 2:05 - loss: 0.0832 - accuracy: 1.0000
…
ziffer_resize/7_10_ht6_20210703-133250.jpg 7 -1
ziffer_resize/8.0_LCD_digit_8.jpg 8 6
ziffer_resize/9_D8_2020-08-16_01-02-52.jpg 9 3
ziffer_resize/NaN_0_ht6_20210628-182853.jpg -1 9
ziffer_resize/NaN_4_ht7_20210701-112725.jpg -1 4
ziffer_resize/NaN_7_dig6_20210629-070207.jpg -1 7
ziffer_resize/NaN_ziffer5_2020-04-16_11-40-06.jpg -1 5
dig-s3
File Exists
Model: "sequential_3"
_________________________________________________________________
Layer (type)                 Output Shape              Param #   
=================================================================
batch_normalization_3 (Batch (None, 32, 20, 3)         12        
_________________________________________________________________
conv2d_9 (Conv2D)            (None, 32, 20, 32)        896       
_________________________________________________________________
max_pooling2d_9 (MaxPooling2 (None, 16, 10, 32)        0         
_________________________________________________________________
conv2d_10 (Conv2D)           (None, 16, 10, 32)        9248      
_________________________________________________________________
max_pooling2d_10 (MaxPooling (None, 8, 5, 32)          0         
_________________________________________________________________
conv2d_11 (Conv2D)           (None, 8, 5, 32)          9248      
_________________________________________________________________
max_pooling2d_11 (MaxPooling (None, 4, 2, 32)          0         
_________________________________________________________________
flatten_3 (Flatten)          (None, 256)               0         
_________________________________________________________________
dense_6 (Dense)              (None, 128)               32896     
_________________________________________________________________
dense_7 (Dense)              (None, 11)                1419      
=================================================================
Total params: 53,719
Trainable params: 53,713
Non-trainable params: 6
_________________________________________________________________
1711
(1711, 32, 20, 3)
(1711, 11)
(1368, 32, 20, 3)
(343, 32, 20, 3)
Epoch 1/100
  1/342 [..............................] - ETA: 1:52 - loss: 1.0222e-05 - accuracy: 1.0000
…
