…
in: ziffer_raw/NaN_Ziffer_NaN_1248.jpg  -  out: ziffer_resize/NaN_Ziffer_NaN_1248.jpg
in: ziffer_raw/8_2.jpg  -  out: ziffer_resize/8_2.jpg
in: ziffer_raw/NaN_Ziffer_NaN_1240.jpg  -  out: ziffer_resize/NaN_Ziffer_NaN_1240.jpg
in: ziffer_raw/NaN_8_ht6_20210625-211611.jpg  -  out: ziffer_resize/NaN_8_ht6_20210625-211611.jpg
dig-s0
a_output_actual/dig-s0
File Exists
Model: "sequential"
_________________________________________________________________
Layer (type)                 Output Shape              Param #   
=================================================================
batch_normalization (BatchNo (None, 32, 20, 3)         12        
_________________________________________________________________
conv2d (Conv2D)              (None, 32, 20, 32)        896       
_________________________________________________________________
max_pooling2d (MaxPooling2D) (None, 16, 10, 32)        0         
_________________________________________________________________
conv2d_1 (Conv2D)            (None, 16, 10, 64)        18496     
_________________________________________________________________
max_pooling2d_1 (MaxPooling2 (None, 8, 5, 64)          0         
_________________________________________________________________
conv2d_2 (Conv2D)            (None, 8, 5, 64)          36928     
_________________________________________________________________
max_pooling2d_2 (MaxPooling2 (None, 4, 2, 64)          0         
_________________________________________________________________
flatten (Flatten)            (None, 512)               0         
_________________________________________________________________
dense (Dense)                (None, 512)               262656    
_________________________________________________________________
dense_1 (Dense)              (None, 11)                5643      
=================================================================
Total params: 324,631
Trainable params: 324,625
Non-trainable params: 6
_________________________________________________________________
1020
(1020, 32, 20, 3)
(1020, 11)
(816, 32, 20, 3)
(204, 32, 20, 3)
Epoch 1/100
  1/204 [..............................] - ETA: 2:08 - loss: 4.0789 - accuracy: 0.7500
…
204/204 [==============================] - 2s 11ms/step - loss: 0.0043 - accuracy: 0.9981 - val_loss: 2.8080e-05 - val_accuracy: 1.0000
dig-s0
File Exists
ziffer_resize/6_digit7_20210816-035447.jpg 6 4
ziffer_resize/9 -4_6_20211231-090402.jpg 9 7
dig-s1
a_output_actual/dig-s1
File Exists
Model: "sequential_1"
_________________________________________________________________
Layer (type)                 Output Shape              Param #   
=================================================================
batch_normalization_1 (Batch (None, 32, 20, 3)         12        
_________________________________________________________________
conv2d_3 (Conv2D)            (None, 32, 20, 32)        896       
_________________________________________________________________
max_pooling2d_3 (MaxPooling2 (None, 16, 10, 32)        0         
_________________________________________________________________
conv2d_4 (Conv2D)            (None, 16, 10, 64)        18496     
_________________________________________________________________
max_pooling2d_4 (MaxPooling2 (None, 8, 5, 64)          0         
_________________________________________________________________
conv2d_5 (Conv2D)            (None, 8, 5, 64)          36928     
_________________________________________________________________
max_pooling2d_5 (MaxPooling2 (None, 4, 2, 64)          0         
_________________________________________________________________
flatten_1 (Flatten)          (None, 512)               0         
_________________________________________________________________
dense_2 (Dense)              (None, 256)               131328    
_________________________________________________________________
dense_3 (Dense)              (None, 11)                2827      
=================================================================
Total params: 190,487
Trainable params: 190,481
Non-trainable params: 6
_________________________________________________________________
1020
(1020, 32, 20, 3)
(1020, 11)
(816, 32, 20, 3)
(204, 32, 20, 3)
Epoch 1/100
  1/204 [..............................] - ETA: 2:39 - loss: 3.2990e-04 - accuracy: 1.0000
…
20220102	1020	97	0.001515441108494997	0.001663321629166603
20220102	1020	98	8.036317740334198e-05	0.08039060235023499
20220102	1020	99	0.00015609968977514654	7.157465461204993e-06
20220102	1020	100	0.00030522060114890337	0.03394405171275139
dig-s1
File Exists
ziffer_resize/NaN_6_ROI6_20210218-112840.jpg -1 5
dig-s2
a_output_actual/dig-s2
File Exists
Model: "sequential_2"
_________________________________________________________________
Layer (type)                 Output Shape              Param #   
=================================================================
batch_normalization_2 (Batch (None, 32, 20, 3)         12        
_________________________________________________________________
conv2d_6 (Conv2D)            (None, 32, 20, 32)        896       
_________________________________________________________________
max_pooling2d_6 (MaxPooling2 (None, 16, 10, 32)        0         
_________________________________________________________________
conv2d_7 (Conv2D)            (None, 16, 10, 32)        9248      
_________________________________________________________________
max_pooling2d_7 (MaxPooling2 (None, 8, 5, 32)          0         
_________________________________________________________________
conv2d_8 (Conv2D)            (None, 8, 5, 32)          9248      
_________________________________________________________________
max_pooling2d_8 (MaxPooling2 (None, 4, 2, 32)          0         
_________________________________________________________________
flatten_2 (Flatten)          (None, 256)               0         
_________________________________________________________________
dense_4 (Dense)              (None, 256)               65792     
_________________________________________________________________
dense_5 (Dense)              (None, 11)                2827      
=================================================================
Total params: 88,023
Trainable params: 88,017
Non-trainable params: 6
_________________________________________________________________
1020
(1020, 32, 20, 3)
(1020, 11)
(816, 32, 20, 3)
(204, 32, 20, 3)
Epoch 1/100
  1/204 [..............................] - ETA: 1:57 - loss: 1.2487e-05 - accuracy: 1.0000
…
20220102	1020	98	0.030845994129776955	0.021862788125872612
20220102	1020	99	0.019576989114284515	8.981247810879722e-05
20220102	1020	100	0.008601892739534378	0.11049152910709381
dig-s2
File Exists
ziffer_resize/2_2_ht6_20210626-093311.jpg 2 7
ziffer_resize/9 -7_7_20211231-110401.jpg 9 7
ziffer_resize/NaN_0_ht6_20210628-182853.jpg -1 9
dig-s3
a_output_actual/dig-s3
File Exists
Model: "sequential_3"
_________________________________________________________________
Layer (type)                 Output Shape              Param #   
=================================================================
batch_normalization_3 (Batch (None, 32, 20, 3)         12        
_________________________________________________________________
conv2d_9 (Conv2D)            (None, 32, 20, 32)        896       
_________________________________________________________________
max_pooling2d_9 (MaxPooling2 (None, 16, 10, 32)        0         
_________________________________________________________________
conv2d_10 (Conv2D)           (None, 16, 10, 32)        9248      
_________________________________________________________________
max_pooling2d_10 (MaxPooling (None, 8, 5, 32)          0         
_________________________________________________________________
conv2d_11 (Conv2D)           (None, 8, 5, 32)          9248      
_________________________________________________________________
max_pooling2d_11 (MaxPooling (None, 4, 2, 32)          0         
_________________________________________________________________
flatten_3 (Flatten)          (None, 256)               0         
_________________________________________________________________
dense_6 (Dense)              (None, 128)               32896     
_________________________________________________________________
dense_7 (Dense)              (None, 11)                1419      
=================================================================
Total params: 53,719
Trainable params: 53,713
Non-trainable params: 6
_________________________________________________________________
1020
(1020, 32, 20, 3)
(1020, 11)
(816, 32, 20, 3)
(204, 32, 20, 3)
Epoch 1/100
  1/204 [..............................] - ETA: 1:51 - loss: 3.5763e-06 - accuracy: 1.0000
…
