…
in: ziffer_raw/NaN_ziffer5_2020-05-11_11-10-06.jpg  -  out: ziffer_resize/NaN_ziffer5_2020-05-11_11-10-06.jpg
in: ziffer_raw/NaN_ziffer5_2020-04-18_18-40-06.jpg  -  out: ziffer_resize/NaN_ziffer5_2020-04-18_18-40-06.jpg
in: ziffer_raw/2_2_dig6_20210629-140009.jpg  -  out: ziffer_resize/2_2_dig6_20210629-140009.jpg
in: ziffer_raw/2_2_digit3_20210320-014308.jpg  -  out: ziffer_resize/2_2_digit3_20210320-014308.jpg
dig-s0
a_output_actual/dig-s0
File Exists
Model: "sequential"
_________________________________________________________________
Layer (type)                 Output Shape              Param #   
=================================================================
batch_normalization (BatchNo (None, 32, 20, 3)         12        
_________________________________________________________________
conv2d (Conv2D)              (None, 32, 20, 32)        896       
_________________________________________________________________
max_pooling2d (MaxPooling2D) (None, 16, 10, 32)        0         
_________________________________________________________________
conv2d_1 (Conv2D)            (None, 16, 10, 64)        18496     
_________________________________________________________________
max_pooling2d_1 (MaxPooling2 (None, 8, 5, 64)          0         
_________________________________________________________________
conv2d_2 (Conv2D)            (None, 8, 5, 64)          36928     
_________________________________________________________________
max_pooling2d_2 (MaxPooling2 (None, 4, 2, 64)          0         
_________________________________________________________________
flatten (Flatten)            (None, 512)               0         
_________________________________________________________________
dense (Dense)                (None, 512)               262656    
_________________________________________________________________
dense_1 (Dense)              (None, 11)                5643      
=================================================================
Total params: 324,631
Trainable params: 324,625
Non-trainable params: 6
_________________________________________________________________
1031
(1031, 32, 20, 3)
(1031, 11)
(824, 32, 20, 3)
(207, 32, 20, 3)
Epoch 1/100
  1/206 [..............................] - ETA: 2:02 - loss: 0.0000e+00 - accuracy: 1.0000
…
ccuracy: 1.0000206/206 [==============================] - 2s 8ms/step - loss: 5.8254e-07 - accuracy: 1.0000 - val_loss: 2.5766e-04 - val_accuracy: 1.0000
dig-s0
File Exists
ziffer_resize/5_5_ROI4_20210418-173416.jpg 5 6
dig-s1
a_output_actual/dig-s1
File Exists
Model: "sequential_1"
_________________________________________________________________
Layer (type)                 Output Shape              Param #   
=================================================================
batch_normalization_1 (Batch (None, 32, 20, 3)         12        
_________________________________________________________________
conv2d_3 (Conv2D)            (None, 32, 20, 32)        896       
_________________________________________________________________
max_pooling2d_3 (MaxPooling2 (None, 16, 10, 32)        0         
_________________________________________________________________
conv2d_4 (Conv2D)            (None, 16, 10, 64)        18496     
_________________________________________________________________
max_pooling2d_4 (MaxPooling2 (None, 8, 5, 64)          0         
_________________________________________________________________
conv2d_5 (Conv2D)            (None, 8, 5, 64)          36928     
_________________________________________________________________
max_pooling2d_5 (MaxPooling2 (None, 4, 2, 64)          0         
_________________________________________________________________
flatten_1 (Flatten)          (None, 512)               0         
_________________________________________________________________
dense_2 (Dense)              (None, 256)               131328    
_________________________________________________________________
dense_3 (Dense)              (None, 11)                2827      
=================================================================
Total params: 190,487
Trainable params: 190,481
Non-trainable params: 6
_________________________________________________________________
1031
(1031, 32, 20, 3)
(1031, 11)
(824, 32, 20, 3)
(207, 32, 20, 3)
Epoch 1/100
  1/206 [..............................] - ETA: 1:26 - loss: 2.9802e-08 - accuracy: 1.0000
…
20220103	1031	96	7.38053415716422e-07	0.00014850821753498167
20220103	1031	97	0.00394698278978467	0.08110058307647705
20220103	1031	98	0.0017343248473480344	3.6682985182778793e-07
20220103	1031	99	0.00719064986333251	0.0002887012087740004
20220103	1031	100	6.722140710735403e-07	0.0003216117911506444
dig-s1
File Exists
dig-s2
a_output_actual/dig-s2
File Exists
Model: "sequential_2"
_________________________________________________________________
Layer (type)                 Output Shape              Param #   
=================================================================
batch_normalization_2 (Batch (None, 32, 20, 3)         12        
_________________________________________________________________
conv2d_6 (Conv2D)            (None, 32, 20, 32)        896       
_________________________________________________________________
max_pooling2d_6 (MaxPooling2 (None, 16, 10, 32)        0         
_________________________________________________________________
conv2d_7 (Conv2D)            (None, 16, 10, 32)        9248      
_________________________________________________________________
max_pooling2d_7 (MaxPooling2 (None, 8, 5, 32)          0         
_________________________________________________________________
conv2d_8 (Conv2D)            (None, 8, 5, 32)          9248      
_________________________________________________________________
max_pooling2d_8 (MaxPooling2 (None, 4, 2, 32)          0         
_________________________________________________________________
flatten_2 (Flatten)          (None, 256)               0         
_________________________________________________________________
dense_4 (Dense)              (None, 256)               65792     
_________________________________________________________________
dense_5 (Dense)              (None, 11)                2827      
=================================================================
Total params: 88,023
Trainable params: 88,017
Non-trainable params: 6
_________________________________________________________________
1031
(1031, 32, 20, 3)
(1031, 11)
(824, 32, 20, 3)
(207, 32, 20, 3)
Epoch 1/100
  1/206 [..............................] - ETA: 1:25 - loss: 0.0000e+00 - accuracy: 1.0000
…
20220103	1031	97	3.5043231036979705e-05	0.06965702772140503
20220103	1031	98	3.31096671288833e-05	0.06446976214647293
20220103	1031	99	0.012896532192826271	0.001233825460076332
20220103	1031	100	0.008704044856131077	0.15278062224388123
dig-s2
File Exists
ziffer_resize/3.0_dig1_20211011-101735.jpg 3 9
ziffer_resize/NaN_0_ht6_20210628-182853.jpg -1 9
dig-s3
a_output_actual/dig-s3
File Exists
Model: "sequential_3"
_________________________________________________________________
Layer (type)                 Output Shape              Param #   
=================================================================
batch_normalization_3 (Batch (None, 32, 20, 3)         12        
_________________________________________________________________
conv2d_9 (Conv2D)            (None, 32, 20, 32)        896       
_________________________________________________________________
max_pooling2d_9 (MaxPooling2 (None, 16, 10, 32)        0         
_________________________________________________________________
conv2d_10 (Conv2D)           (None, 16, 10, 32)        9248      
_________________________________________________________________
max_pooling2d_10 (MaxPooling (None, 8, 5, 32)          0         
_________________________________________________________________
conv2d_11 (Conv2D)           (None, 8, 5, 32)          9248      
_________________________________________________________________
max_pooling2d_11 (MaxPooling (None, 4, 2, 32)          0         
_________________________________________________________________
flatten_3 (Flatten)          (None, 256)               0         
_________________________________________________________________
dense_6 (Dense)              (None, 128)               32896     
_________________________________________________________________
dense_7 (Dense)              (None, 11)                1419      
=================================================================
Total params: 53,719
Trainable params: 53,713
Non-trainable params: 6
_________________________________________________________________
1031
(1031, 32, 20, 3)
(1031, 11)
(824, 32, 20, 3)
(207, 32, 20, 3)
Epoch 1/100
  1/206 [..............................] - ETA: 1:26 - loss: 2.0862e-07 - accuracy: 1.0000
…
