…
in: ziffer_raw/5_c.jpg  -  out: ziffer_resize/5_c.jpg
in: ziffer_raw/8_8_ht6_20210629-164042.jpg  -  out: ziffer_resize/8_8_ht6_20210629-164042.jpg
in: ziffer_raw/8.0_github417_2.jpg  -  out: ziffer_resize/8.0_github417_2.jpg
in: ziffer_raw/6_6b.jpg  -  out: ziffer_resize/6_6b.jpg
in: ziffer_raw/4_3.jpg  -  out: ziffer_resize/4_3.jpg
dig-s0
a_output_actual/dig-s0
File Exists
Model: "sequential"
_________________________________________________________________
Layer (type)                 Output Shape              Param #   
=================================================================
batch_normalization (BatchNo (None, 32, 20, 3)         12        
_________________________________________________________________
conv2d (Conv2D)              (None, 32, 20, 32)        896       
_________________________________________________________________
max_pooling2d (MaxPooling2D) (None, 16, 10, 32)        0         
_________________________________________________________________
conv2d_1 (Conv2D)            (None, 16, 10, 64)        18496     
_________________________________________________________________
max_pooling2d_1 (MaxPooling2 (None, 8, 5, 64)          0         
_________________________________________________________________
conv2d_2 (Conv2D)            (None, 8, 5, 64)          36928     
_________________________________________________________________
max_pooling2d_2 (MaxPooling2 (None, 4, 2, 64)          0         
_________________________________________________________________
flatten (Flatten)            (None, 512)               0         
_________________________________________________________________
dense (Dense)                (None, 512)               262656    
_________________________________________________________________
dense_1 (Dense)              (None, 11)                5643      
=================================================================
Total params: 324,631
Trainable params: 324,625
Non-trainable params: 6
_________________________________________________________________
994
(994, 32, 20, 3)
(994, 11)
(795, 32, 20, 3)
(199, 32, 20, 3)
Epoch 1/100
  1/199 [..............................] - ETA: 2:04 - loss: 0.0000e+00 - accuracy: 1.0000
…
accuracy: 0.9548
dig-s0
File Exists
ziffer_resize/2_2_ROI6_20210308-195455.jpg 2 7
ziffer_resize/2_2_ROI6_20210309-075539.jpg 2 7
ziffer_resize/2_a2.jpg 2 7
ziffer_resize/7_10_ht6_20210703-133250.jpg 7 -1
ziffer_resize/NaN_0_ht6_20210628-182853.jpg -1 9
ziffer_resize/NaN_ziffer5_2020-04-16_11-40-06.jpg -1 5
dig-s1
a_output_actual/dig-s1
File Exists
Model: "sequential_1"
_________________________________________________________________
Layer (type)                 Output Shape              Param #   
=================================================================
batch_normalization_1 (Batch (None, 32, 20, 3)         12        
_________________________________________________________________
conv2d_3 (Conv2D)            (None, 32, 20, 32)        896       
_________________________________________________________________
max_pooling2d_3 (MaxPooling2 (None, 16, 10, 32)        0         
_________________________________________________________________
conv2d_4 (Conv2D)            (None, 16, 10, 64)        18496     
_________________________________________________________________
max_pooling2d_4 (MaxPooling2 (None, 8, 5, 64)          0         
_________________________________________________________________
conv2d_5 (Conv2D)            (None, 8, 5, 64)          36928     
_________________________________________________________________
max_pooling2d_5 (MaxPooling2 (None, 4, 2, 64)          0         
_________________________________________________________________
flatten_1 (Flatten)          (None, 512)               0         
_________________________________________________________________
dense_2 (Dense)              (None, 256)               131328    
_________________________________________________________________
dense_3 (Dense)              (None, 11)                2827      
=================================================================
Total params: 190,487
Trainable params: 190,481
Non-trainable params: 6
_________________________________________________________________
994
(994, 32, 20, 3)
(994, 11)
(795, 32, 20, 3)
(199, 32, 20, 3)
Epoch 1/100
  1/199 [..............................] - ETA: 1:41 - loss: 3.4241e-05 - accuracy: 1.0000
…
20211227	994	100	0.0035010864958167076	0.038226254284381866
dig-s1
File Exists
ziffer_resize/3_0_ht4_20210701-194658.jpg 3 9
ziffer_resize/3_0_ht6_20210702-055135.jpg 3 9
ziffer_resize/5_5_ROI4_20210418-173416.jpg 5 -1
ziffer_resize/8_8_ht6_20210629-164042.jpg 8 9
ziffer_resize/NaN_0_ht6_20210628-182853.jpg -1 9
dig-s2
a_output_actual/dig-s2
File Exists
Model: "sequential_2"
_________________________________________________________________
Layer (type)                 Output Shape              Param #   
=================================================================
batch_normalization_2 (Batch (None, 32, 20, 3)         12        
_________________________________________________________________
conv2d_6 (Conv2D)            (None, 32, 20, 32)        896       
_________________________________________________________________
max_pooling2d_6 (MaxPooling2 (None, 16, 10, 32)        0         
_________________________________________________________________
conv2d_7 (Conv2D)            (None, 16, 10, 32)        9248      
_________________________________________________________________
max_pooling2d_7 (MaxPooling2 (None, 8, 5, 32)          0         
_________________________________________________________________
conv2d_8 (Conv2D)            (None, 8, 5, 32)          9248      
_________________________________________________________________
max_pooling2d_8 (MaxPooling2 (None, 4, 2, 32)          0         
_________________________________________________________________
flatten_2 (Flatten)          (None, 256)               0         
_________________________________________________________________
dense_4 (Dense)              (None, 256)               65792     
_________________________________________________________________
dense_5 (Dense)              (None, 11)                2827      
=================================================================
Total params: 88,023
Trainable params: 88,017
Non-trainable params: 6
_________________________________________________________________
994
(994, 32, 20, 3)
(994, 11)
(795, 32, 20, 3)
(199, 32, 20, 3)
Epoch 1/100
  1/199 [..............................] - ETA: 1:38 - loss: 1.4305e-05 - accuracy: 1.0000
…
ziffer_resize/3_0_ht6_20210702-055135.jpg 3 9
ziffer_resize/6_6f_4_digit6_20210406-111334.jpg 6 4
ziffer_resize/7_10_ht6_20210703-133250.jpg 7 -1
ziffer_resize/NaN_0_ht6_20210628-182853.jpg -1 9
ziffer_resize/NaN_20200910-030555_ROI5.jpg -1 2
ziffer_resize/NaN_6_ht6_20210705-100837.jpg -1 6
ziffer_resize/NaN_ziffer5_2020-04-16_11-40-06.jpg -1 5
dig-s3
a_output_actual/dig-s3
File Exists
Model: "sequential_3"
_________________________________________________________________
Layer (type)                 Output Shape              Param #   
=================================================================
batch_normalization_3 (Batch (None, 32, 20, 3)         12        
_________________________________________________________________
conv2d_9 (Conv2D)            (None, 32, 20, 32)        896       
_________________________________________________________________
max_pooling2d_9 (MaxPooling2 (None, 16, 10, 32)        0         
_________________________________________________________________
conv2d_10 (Conv2D)           (None, 16, 10, 32)        9248      
_________________________________________________________________
max_pooling2d_10 (MaxPooling (None, 8, 5, 32)          0         
_________________________________________________________________
conv2d_11 (Conv2D)           (None, 8, 5, 32)          9248      
_________________________________________________________________
max_pooling2d_11 (MaxPooling (None, 4, 2, 32)          0         
_________________________________________________________________
flatten_3 (Flatten)          (None, 256)               0         
_________________________________________________________________
dense_6 (Dense)              (None, 128)               32896     
_________________________________________________________________
dense_7 (Dense)              (None, 11)                1419      
=================================================================
Total params: 53,719
Trainable params: 53,713
Non-trainable params: 6
_________________________________________________________________
994
(994, 32, 20, 3)
(994, 11)
(795, 32, 20, 3)
(199, 32, 20, 3)
Epoch 1/100
  1/199 [..............................] - ETA: 1:41 - loss: 8.9407e-08 - accuracy: 1.0000
…
