…
in: ziffer_raw/4_4_digit3_20210424-160317.jpg  -  out: ziffer_resize/4_4_digit3_20210424-160317.jpg
in: ziffer_raw/7_7_nt6_20210626-043348.jpg  -  out: ziffer_resize/7_7_nt6_20210626-043348.jpg
in: ziffer_raw/7_7_digit4_20210414-180055.jpg  -  out: ziffer_resize/7_7_digit4_20210414-180055.jpg
in: ziffer_raw/7.0_github417.jpg  -  out: ziffer_resize/7.0_github417.jpg
dig-s0
a_output_actual/dig-s0
File Exists
Model: "sequential"
_________________________________________________________________
Layer (type)                 Output Shape              Param #   
=================================================================
batch_normalization (BatchNo (None, 32, 20, 3)         12        
_________________________________________________________________
conv2d (Conv2D)              (None, 32, 20, 32)        896       
_________________________________________________________________
max_pooling2d (MaxPooling2D) (None, 16, 10, 32)        0         
_________________________________________________________________
conv2d_1 (Conv2D)            (None, 16, 10, 64)        18496     
_________________________________________________________________
max_pooling2d_1 (MaxPooling2 (None, 8, 5, 64)          0         
_________________________________________________________________
conv2d_2 (Conv2D)            (None, 8, 5, 64)          36928     
_________________________________________________________________
max_pooling2d_2 (MaxPooling2 (None, 4, 2, 64)          0         
_________________________________________________________________
flatten (Flatten)            (None, 512)               0         
_________________________________________________________________
dense (Dense)                (None, 512)               262656    
_________________________________________________________________
dense_1 (Dense)              (None, 11)                5643      
=================================================================
Total params: 324,631
Trainable params: 324,625
Non-trainable params: 6
_________________________________________________________________
1099
(1099, 32, 20, 3)
(1099, 11)
(879, 32, 20, 3)
(220, 32, 20, 3)
Epoch 1/100
  1/220 [..............................] - ETA: 2:22 - loss: 0.0061 - accuracy: 1.0000
…
ss: 0.0094 - accuracy: 0.9919220/220 [==============================] - 2s 10ms/step - loss: 0.0092 - accuracy: 0.9921 - val_loss: 0.0191 - val_accuracy: 0.9955
dig-s0
File Exists
ziffer_resize/4_4_8_20210727-092315.jpg 4 9
dig-s1
a_output_actual/dig-s1
File Exists
Model: "sequential_1"
_________________________________________________________________
Layer (type)                 Output Shape              Param #   
=================================================================
batch_normalization_1 (Batch (None, 32, 20, 3)         12        
_________________________________________________________________
conv2d_3 (Conv2D)            (None, 32, 20, 32)        896       
_________________________________________________________________
max_pooling2d_3 (MaxPooling2 (None, 16, 10, 32)        0         
_________________________________________________________________
conv2d_4 (Conv2D)            (None, 16, 10, 64)        18496     
_________________________________________________________________
max_pooling2d_4 (MaxPooling2 (None, 8, 5, 64)          0         
_________________________________________________________________
conv2d_5 (Conv2D)            (None, 8, 5, 64)          36928     
_________________________________________________________________
max_pooling2d_5 (MaxPooling2 (None, 4, 2, 64)          0         
_________________________________________________________________
flatten_1 (Flatten)          (None, 512)               0         
_________________________________________________________________
dense_2 (Dense)              (None, 256)               131328    
_________________________________________________________________
dense_3 (Dense)              (None, 11)                2827      
=================================================================
Total params: 190,487
Trainable params: 190,481
Non-trainable params: 6
_________________________________________________________________
1099
(1099, 32, 20, 3)
(1099, 11)
(879, 32, 20, 3)
(220, 32, 20, 3)
Epoch 1/100
  1/220 [..............................] - ETA: 1:43 - loss: 8.9407e-08 - accuracy: 1.0000
…
20220205	1099	99	0.03259928524494171	0.024171877652406693
20220205	1099	100	0.0005419604713097215	0.0895138755440712
dig-s1
File Exists
ziffer_resize/0-1_5_20211231-062402.jpg 0 7
ziffer_resize/4.0_dig5_20210924-075240.jpg 4 9
ziffer_resize/6_ziffer5_2019-11-17_14-25-03.jpg 6 -1
ziffer_resize/8.0_01.jpg 8 6
ziffer_resize/9_9_ROI4_20210501-210646.jpg 9 -1
dig-s2
a_output_actual/dig-s2
File Exists
Model: "sequential_2"
_________________________________________________________________
Layer (type)                 Output Shape              Param #   
=================================================================
batch_normalization_2 (Batch (None, 32, 20, 3)         12        
_________________________________________________________________
conv2d_6 (Conv2D)            (None, 32, 20, 32)        896       
_________________________________________________________________
max_pooling2d_6 (MaxPooling2 (None, 16, 10, 32)        0         
_________________________________________________________________
conv2d_7 (Conv2D)            (None, 16, 10, 32)        9248      
_________________________________________________________________
max_pooling2d_7 (MaxPooling2 (None, 8, 5, 32)          0         
_________________________________________________________________
conv2d_8 (Conv2D)            (None, 8, 5, 32)          9248      
_________________________________________________________________
max_pooling2d_8 (MaxPooling2 (None, 4, 2, 32)          0         
_________________________________________________________________
flatten_2 (Flatten)          (None, 256)               0         
_________________________________________________________________
dense_4 (Dense)              (None, 256)               65792     
_________________________________________________________________
dense_5 (Dense)              (None, 11)                2827      
=================================================================
Total params: 88,023
Trainable params: 88,017
Non-trainable params: 6
_________________________________________________________________
1099
(1099, 32, 20, 3)
(1099, 11)
(879, 32, 20, 3)
(220, 32, 20, 3)
Epoch 1/100
  1/220 [..............................] - ETA: 2:37 - loss: 0.0000e+00 - accuracy: 1.0000
…
20220205	1099	98	0.021061860024929047	0.04043461009860039
20220205	1099	99	0.01976350136101246	0.004064911510795355
20220205	1099	100	0.006352744996547699	0.02676526829600334
dig-s2
File Exists
ziffer_resize/3_main_dig5.jpg 3 8
ziffer_resize/6_dig5_20220106-020809.jpg 6 0
ziffer_resize/NaN_2_ROI3_20210309-093538.jpg -1 7
dig-s3
a_output_actual/dig-s3
File Exists
Model: "sequential_3"
_________________________________________________________________
Layer (type)                 Output Shape              Param #   
=================================================================
batch_normalization_3 (Batch (None, 32, 20, 3)         12        
_________________________________________________________________
conv2d_9 (Conv2D)            (None, 32, 20, 32)        896       
_________________________________________________________________
max_pooling2d_9 (MaxPooling2 (None, 16, 10, 32)        0         
_________________________________________________________________
conv2d_10 (Conv2D)           (None, 16, 10, 32)        9248      
_________________________________________________________________
max_pooling2d_10 (MaxPooling (None, 8, 5, 32)          0         
_________________________________________________________________
conv2d_11 (Conv2D)           (None, 8, 5, 32)          9248      
_________________________________________________________________
max_pooling2d_11 (MaxPooling (None, 4, 2, 32)          0         
_________________________________________________________________
flatten_3 (Flatten)          (None, 256)               0         
_________________________________________________________________
dense_6 (Dense)              (None, 128)               32896     
_________________________________________________________________
dense_7 (Dense)              (None, 11)                1419      
=================================================================
Total params: 53,719
Trainable params: 53,713
Non-trainable params: 6
_________________________________________________________________
1099
(1099, 32, 20, 3)
(1099, 11)
(879, 32, 20, 3)
(220, 32, 20, 3)
Epoch 1/100
  1/220 [..............................] - ETA: 1:44 - loss: 0.0000e+00 - accuracy: 1.0000
…
