…
in: ziffer_raw/NaN_Ziffer_NaN_3606.jpg  -  out: ziffer_resize/NaN_Ziffer_NaN_3606.jpg
in: ziffer_raw/5_digit7_001307.jpg  -  out: ziffer_resize/5_digit7_001307.jpg
in: ziffer_raw/3_3_dig2_20210628-181000.jpg  -  out: ziffer_resize/3_3_dig2_20210628-181000.jpg
in: ziffer_raw/1_1_dig3_20210730-182850.jpg  -  out: ziffer_resize/1_1_dig3_20210730-182850.jpg
dig-s0
a_output_actual/dig-s0
File Exists
Model: "sequential"
_________________________________________________________________
Layer (type)                 Output Shape              Param #   
=================================================================
batch_normalization (BatchNo (None, 32, 20, 3)         12        
_________________________________________________________________
conv2d (Conv2D)              (None, 32, 20, 32)        896       
_________________________________________________________________
max_pooling2d (MaxPooling2D) (None, 16, 10, 32)        0         
_________________________________________________________________
conv2d_1 (Conv2D)            (None, 16, 10, 64)        18496     
_________________________________________________________________
max_pooling2d_1 (MaxPooling2 (None, 8, 5, 64)          0         
_________________________________________________________________
conv2d_2 (Conv2D)            (None, 8, 5, 64)          36928     
_________________________________________________________________
max_pooling2d_2 (MaxPooling2 (None, 4, 2, 64)          0         
_________________________________________________________________
flatten (Flatten)            (None, 512)               0         
_________________________________________________________________
dense (Dense)                (None, 512)               262656    
_________________________________________________________________
dense_1 (Dense)              (None, 11)                5643      
=================================================================
Total params: 324,631
Trainable params: 324,625
Non-trainable params: 6
_________________________________________________________________
1057
(1057, 32, 20, 3)
(1057, 11)
(845, 32, 20, 3)
(212, 32, 20, 3)
Epoch 1/100
  1/212 [..............................] - ETA: 1:56 - loss: 0.0000e+00 - accuracy: 1.0000
…
uracy: 1.0000212/212 [==============================] - 2s 7ms/step - loss: 2.1051e-06 - accuracy: 1.0000 - val_loss: 7.7598e-08 - val_accuracy: 1.0000
dig-s0
File Exists
ziffer_resize/NaN_0_ht6_20210628-182853.jpg -1 9
dig-s1
a_output_actual/dig-s1
File Exists
Model: "sequential_1"
_________________________________________________________________
Layer (type)                 Output Shape              Param #   
=================================================================
batch_normalization_1 (Batch (None, 32, 20, 3)         12        
_________________________________________________________________
conv2d_3 (Conv2D)            (None, 32, 20, 32)        896       
_________________________________________________________________
max_pooling2d_3 (MaxPooling2 (None, 16, 10, 32)        0         
_________________________________________________________________
conv2d_4 (Conv2D)            (None, 16, 10, 64)        18496     
_________________________________________________________________
max_pooling2d_4 (MaxPooling2 (None, 8, 5, 64)          0         
_________________________________________________________________
conv2d_5 (Conv2D)            (None, 8, 5, 64)          36928     
_________________________________________________________________
max_pooling2d_5 (MaxPooling2 (None, 4, 2, 64)          0         
_________________________________________________________________
flatten_1 (Flatten)          (None, 512)               0         
_________________________________________________________________
dense_2 (Dense)              (None, 256)               131328    
_________________________________________________________________
dense_3 (Dense)              (None, 11)                2827      
=================================================================
Total params: 190,487
Trainable params: 190,481
Non-trainable params: 6
_________________________________________________________________
1057
(1057, 32, 20, 3)
(1057, 11)
(845, 32, 20, 3)
(212, 32, 20, 3)
Epoch 1/100
  1/212 [..............................] - ETA: 1:20 - loss: 0.0000e+00 - accuracy: 1.0000
…
20220110	1057	97	1.4149730986900977e-07	0.00028876052238047123
20220110	1057	98	1.761087514751125e-05	0.006886804476380348
20220110	1057	99	0.007554756477475166	0.06457852572202682
20220110	1057	100	5.0363851755719224e-08	0.008997505530714989
dig-s1
File Exists
ziffer_resize/5_5_ROI4_20210418-173416.jpg 5 -1
dig-s2
a_output_actual/dig-s2
File Exists
Model: "sequential_2"
_________________________________________________________________
Layer (type)                 Output Shape              Param #   
=================================================================
batch_normalization_2 (Batch (None, 32, 20, 3)         12        
_________________________________________________________________
conv2d_6 (Conv2D)            (None, 32, 20, 32)        896       
_________________________________________________________________
max_pooling2d_6 (MaxPooling2 (None, 16, 10, 32)        0         
_________________________________________________________________
conv2d_7 (Conv2D)            (None, 16, 10, 32)        9248      
_________________________________________________________________
max_pooling2d_7 (MaxPooling2 (None, 8, 5, 32)          0         
_________________________________________________________________
conv2d_8 (Conv2D)            (None, 8, 5, 32)          9248      
_________________________________________________________________
max_pooling2d_8 (MaxPooling2 (None, 4, 2, 32)          0         
_________________________________________________________________
flatten_2 (Flatten)          (None, 256)               0         
_________________________________________________________________
dense_4 (Dense)              (None, 256)               65792     
_________________________________________________________________
dense_5 (Dense)              (None, 11)                2827      
=================================================================
Total params: 88,023
Trainable params: 88,017
Non-trainable params: 6
_________________________________________________________________
1057
(1057, 32, 20, 3)
(1057, 11)
(845, 32, 20, 3)
(212, 32, 20, 3)
Epoch 1/100
  1/212 [..............................] - ETA: 1:20 - loss: 0.0000e+00 - accuracy: 1.0000
…
20220110	1057	96	0.019589053466916084	0.008097385056316853
20220110	1057	97	0.0007259916164912283	0.058018408715724945
20220110	1057	98	0.00019734461966436356	3.1674501315137604e-06
20220110	1057	99	1.4351479876495432e-05	0.017568746581673622
20220110	1057	100	1.8092958271154203e-05	0.01909838803112507
dig-s2
File Exists
dig-s3
a_output_actual/dig-s3
File Exists
Model: "sequential_3"
_________________________________________________________________
Layer (type)                 Output Shape              Param #   
=================================================================
batch_normalization_3 (Batch (None, 32, 20, 3)         12        
_________________________________________________________________
conv2d_9 (Conv2D)            (None, 32, 20, 32)        896       
_________________________________________________________________
max_pooling2d_9 (MaxPooling2 (None, 16, 10, 32)        0         
_________________________________________________________________
conv2d_10 (Conv2D)           (None, 16, 10, 32)        9248      
_________________________________________________________________
max_pooling2d_10 (MaxPooling (None, 8, 5, 32)          0         
_________________________________________________________________
conv2d_11 (Conv2D)           (None, 8, 5, 32)          9248      
_________________________________________________________________
max_pooling2d_11 (MaxPooling (None, 4, 2, 32)          0         
_________________________________________________________________
flatten_3 (Flatten)          (None, 256)               0         
_________________________________________________________________
dense_6 (Dense)              (None, 128)               32896     
_________________________________________________________________
dense_7 (Dense)              (None, 11)                1419      
=================================================================
Total params: 53,719
Trainable params: 53,713
Non-trainable params: 6
_________________________________________________________________
1057
(1057, 32, 20, 3)
(1057, 11)
(845, 32, 20, 3)
(212, 32, 20, 3)
Epoch 1/100
  1/212 [..............................] - ETA: 2:10 - loss: 0.0000e+00 - accuracy: 1.0000
…
