…
in: ziffer_raw/0_0_ROI3_20210528-145542.jpg  -  out: ziffer_resize/0_0_ROI3_20210528-145542.jpg
in: ziffer_raw/0_9_ht1_20210704-105634.jpg  -  out: ziffer_resize/0_9_ht1_20210704-105634.jpg
in: ziffer_raw/NaN_20200910-003534_ROI5.jpg  -  out: ziffer_resize/NaN_20200910-003534_ROI5.jpg
in: ziffer_raw/NaN_D8_2020-08-24_15-13-50.jpg  -  out: ziffer_resize/NaN_D8_2020-08-24_15-13-50.jpg
dig-s0
a_output_actual/dig-s0
File Exists
Model: "sequential"
_________________________________________________________________
 Layer (type)                Output Shape              Param #   
=================================================================
 batch_normalization (BatchN  (None, 32, 20, 3)        12        
 ormalization)                                                   
                                                                 
 conv2d (Conv2D)             (None, 32, 20, 32)        896       
                                                                 
 max_pooling2d (MaxPooling2D  (None, 16, 10, 32)       0         
 )                                                               
                                                                 
 conv2d_1 (Conv2D)           (None, 16, 10, 64)        18496     
                                                                 
 max_pooling2d_1 (MaxPooling  (None, 8, 5, 64)         0         
 2D)                                                             
                                                                 
 conv2d_2 (Conv2D)           (None, 8, 5, 64)          36928     
                                                                 
 max_pooling2d_2 (MaxPooling  (None, 4, 2, 64)         0         
 2D)                                                             
                                                                 
 flatten (Flatten)           (None, 512)               0         
                                                                 
 dense (Dense)               (None, 512)               262656    
                                                                 
 dense_1 (Dense)             (None, 11)                5643      
                                                                 
=================================================================
Total params: 324,631
Trainable params: 324,625
Non-trainable params: 6
_________________________________________________________________
1150
(1150, 32, 20, 3)
(1150, 11)
(920, 32, 20, 3)
(230, 32, 20, 3)
Epoch 1/100
  1/230 [..............................] -
…
=============>.] - ETA: 0s - loss: 6.8116e-05 - accuracy: 1.0000230/230 [==============================] - 2s 10ms/step - loss: 6.7524e-05 - accuracy: 1.0000 - val_loss: 0.0014 - val_accuracy: 1.0000
dig-s0
File Exists
dig-s1
a_output_actual/dig-s1
File Exists
Model: "sequential_1"
_________________________________________________________________
 Layer (type)                Output Shape              Param #   
=================================================================
 batch_normalization_1 (Batc  (None, 32, 20, 3)        12        
 hNormalization)                                                 
                                                                 
 conv2d_3 (Conv2D)           (None, 32, 20, 32)        896       
                                                                 
 max_pooling2d_3 (MaxPooling  (None, 16, 10, 32)       0         
 2D)                                                             
                                                                 
 conv2d_4 (Conv2D)           (None, 16, 10, 64)        18496     
                                                                 
 max_pooling2d_4 (MaxPooling  (None, 8, 5, 64)         0         
 2D)                                                             
                                                                 
 conv2d_5 (Conv2D)           (None, 8, 5, 64)          36928     
                                                                 
 max_pooling2d_5 (MaxPooling  (None, 4, 2, 64)         0         
 2D)                                                             
                                                                 
 flatten_1 (Flatten)         (None, 512)               0         
                                                                 
 dense_2 (Dense)             (None, 256)               131328    
                                                                 
 dense_3 (Dense)             (None, 11)                2827      
                                                                 
=================================================================
Total params: 190,487
Trainable params: 190,481
Non-trainable params: 6
_________________________________________________________________
1150
(1150, 32, 20, 3)
(1150, 11)
(920, 32, 20, 3)
(230, 32, 20, 3)
Epoch 1/100
  1/230 [..............................] -
…
20220310	1150	96	3.23810672853142e-05	9.512993528915104e-06
20220310	1150	97	0.0013550727162510157	6.7156192926631775e-06
20220310	1150	98	0.0030171212274581194	8.811117169216232e-09
20220310	1150	99	1.3415094599622535e-06	5.270644396659918e-05
20220310	1150	100	3.8872588481453363e-10	0.00022463839559350163
dig-s1
File Exists
dig-s2
a_output_actual/dig-s2
File Exists
Model: "sequential_2"
_________________________________________________________________
 Layer (type)                Output Shape              Param #   
=================================================================
 batch_normalization_2 (Batc  (None, 32, 20, 3)        12        
 hNormalization)                                                 
                                                                 
 conv2d_6 (Conv2D)           (None, 32, 20, 32)        896       
                                                                 
 max_pooling2d_6 (MaxPooling  (None, 16, 10, 32)       0         
 2D)                                                             
                                                                 
 conv2d_7 (Conv2D)           (None, 16, 10, 32)        9248      
                                                                 
 max_pooling2d_7 (MaxPooling  (None, 8, 5, 32)         0         
 2D)                                                             
                                                                 
 conv2d_8 (Conv2D)           (None, 8, 5, 32)          9248      
                                                                 
 max_pooling2d_8 (MaxPooling  (None, 4, 2, 32)         0         
 2D)                                                             
                                                                 
 flatten_2 (Flatten)         (None, 256)               0         
                                                                 
 dense_4 (Dense)             (None, 256)               65792     
                                                                 
 dense_5 (Dense)             (None, 11)                2827      
                                                                 
=================================================================
Total params: 88,023
Trainable params: 88,017
Non-trainable params: 6
_________________________________________________________________
1150
(1150, 32, 20, 3)
(1150, 11)
(920, 32, 20, 3)
(230, 32, 20, 3)
Epoch 1/100
  1/230 [..............................] - E
…
20220310	1150	96	0.0015003494918346405	0.002487724646925926
20220310	1150	97	0.018502870574593544	0.004794339183717966
20220310	1150	98	0.002813534578308463	9.795576261240058e-07
20220310	1150	99	0.00011851371527882293	0.011962540447711945
20220310	1150	100	0.006297485902905464	0.011978479102253914
dig-s2
File Exists
dig-s3
a_output_actual/dig-s3
File Exists
Model: "sequential_3"
_________________________________________________________________
 Layer (type)                Output Shape              Param #   
=================================================================
 batch_normalization_3 (Batc  (None, 32, 20, 3)        12        
 hNormalization)                                                 
                                                                 
 conv2d_9 (Conv2D)           (None, 32, 20, 32)        896       
                                                                 
 max_pooling2d_9 (MaxPooling  (None, 16, 10, 32)       0         
 2D)                                                             
                                                                 
 conv2d_10 (Conv2D)          (None, 16, 10, 32)        9248      
                                                                 
 max_pooling2d_10 (MaxPoolin  (None, 8, 5, 32)         0         
 g2D)                                                            
                                                                 
 conv2d_11 (Conv2D)          (None, 8, 5, 32)          9248      
                                                                 
 max_pooling2d_11 (MaxPoolin  (None, 4, 2, 32)         0         
 g2D)                                                            
                                                                 
 flatten_3 (Flatten)         (None, 256)               0         
                                                                 
 dense_6 (Dense)             (None, 128)               32896     
                                                                 
 dense_7 (Dense)             (None, 11)                1419      
                                                                 
=================================================================
Total params: 53,719
Trainable params: 53,713
Non-trainable params: 6
_________________________________________________________________
1150
(1150, 32, 20, 3)
(1150, 11)
(920, 32, 20, 3)
(230, 32, 20, 3)
Epoch 1/100
  1/230 [..............................] - E
…
