…
in: ziffer_raw/7_digit7_073420.jpg  -  out: ziffer_resize/7_digit7_073420.jpg
in: ziffer_raw/NaN_digit7_081710.jpg  -  out: ziffer_resize/NaN_digit7_081710.jpg
in: ziffer_raw/6_2_20220211.jpg  -  out: ziffer_resize/6_2_20220211.jpg
in: ziffer_raw/1_3.jpg  -  out: ziffer_resize/1_3.jpg
in: ziffer_raw/1_1_digit3_20210315-230740.jpg  -  out: ziffer_resize/1_1_digit3_20210315-230740.jpg
dig-s0
a_output_actual/dig-s0
File Exists
Model: "sequential"
_________________________________________________________________
Layer (type)                 Output Shape              Param #   
=================================================================
batch_normalization (BatchNo (None, 32, 20, 3)         12        
_________________________________________________________________
conv2d (Conv2D)              (None, 32, 20, 32)        896       
_________________________________________________________________
max_pooling2d (MaxPooling2D) (None, 16, 10, 32)        0         
_________________________________________________________________
conv2d_1 (Conv2D)            (None, 16, 10, 64)        18496     
_________________________________________________________________
max_pooling2d_1 (MaxPooling2 (None, 8, 5, 64)          0         
_________________________________________________________________
conv2d_2 (Conv2D)            (None, 8, 5, 64)          36928     
_________________________________________________________________
max_pooling2d_2 (MaxPooling2 (None, 4, 2, 64)          0         
_________________________________________________________________
flatten (Flatten)            (None, 512)               0         
_________________________________________________________________
dense (Dense)                (None, 512)               262656    
_________________________________________________________________
dense_1 (Dense)              (None, 11)                5643      
=================================================================
Total params: 324,631
Trainable params: 324,625
Non-trainable params: 6
_________________________________________________________________
1129
(1129, 32, 20, 3)
(1129, 11)
(903, 32, 20, 3)
(226, 32, 20, 3)
Epoch 1/100
  1/226 [..............................] - ETA: 2:05 - loss: 0.0000e+00 - accuracy: 1.0000
…
=======================>.] - ETA: 0s - loss: 0.0252 - accuracy: 0.9928226/226 [==============================] - 2s 8ms/step - loss: 0.0251 - accuracy: 0.9930 - val_loss: 8.3427e-05 - val_accuracy: 1.0000
dig-s0
File Exists
dig-s1
a_output_actual/dig-s1
File Exists
Model: "sequential_1"
_________________________________________________________________
Layer (type)                 Output Shape              Param #   
=================================================================
batch_normalization_1 (Batch (None, 32, 20, 3)         12        
_________________________________________________________________
conv2d_3 (Conv2D)            (None, 32, 20, 32)        896       
_________________________________________________________________
max_pooling2d_3 (MaxPooling2 (None, 16, 10, 32)        0         
_________________________________________________________________
conv2d_4 (Conv2D)            (None, 16, 10, 64)        18496     
_________________________________________________________________
max_pooling2d_4 (MaxPooling2 (None, 8, 5, 64)          0         
_________________________________________________________________
conv2d_5 (Conv2D)            (None, 8, 5, 64)          36928     
_________________________________________________________________
max_pooling2d_5 (MaxPooling2 (None, 4, 2, 64)          0         
_________________________________________________________________
flatten_1 (Flatten)          (None, 512)               0         
_________________________________________________________________
dense_2 (Dense)              (None, 256)               131328    
_________________________________________________________________
dense_3 (Dense)              (None, 11)                2827      
=================================================================
Total params: 190,487
Trainable params: 190,481
Non-trainable params: 6
_________________________________________________________________
1129
(1129, 32, 20, 3)
(1129, 11)
(903, 32, 20, 3)
(226, 32, 20, 3)
Epoch 1/100
  1/226 [..............................] - ETA: 2:18 - loss: 0.0000e+00 - accuracy: 1.0000
…
20220211	1129	96	0.025014832615852356	0.0009336849907413125
20220211	1129	97	0.0005769535782746971	0.009791495278477669
20220211	1129	98	0.0007765810005366802	0.0006140869227237999
20220211	1129	99	0.00014116834790911525	0.22527679800987244
20220211	1129	100	1.4996543313827715e-06	2.711180115966272e-07
dig-s1
File Exists
dig-s2
a_output_actual/dig-s2
File Exists
Model: "sequential_2"
_________________________________________________________________
Layer (type)                 Output Shape              Param #   
=================================================================
batch_normalization_2 (Batch (None, 32, 20, 3)         12        
_________________________________________________________________
conv2d_6 (Conv2D)            (None, 32, 20, 32)        896       
_________________________________________________________________
max_pooling2d_6 (MaxPooling2 (None, 16, 10, 32)        0         
_________________________________________________________________
conv2d_7 (Conv2D)            (None, 16, 10, 32)        9248      
_________________________________________________________________
max_pooling2d_7 (MaxPooling2 (None, 8, 5, 32)          0         
_________________________________________________________________
conv2d_8 (Conv2D)            (None, 8, 5, 32)          9248      
_________________________________________________________________
max_pooling2d_8 (MaxPooling2 (None, 4, 2, 32)          0         
_________________________________________________________________
flatten_2 (Flatten)          (None, 256)               0         
_________________________________________________________________
dense_4 (Dense)              (None, 256)               65792     
_________________________________________________________________
dense_5 (Dense)              (None, 11)                2827      
=================================================================
Total params: 88,023
Trainable params: 88,017
Non-trainable params: 6
_________________________________________________________________
1129
(1129, 32, 20, 3)
(1129, 11)
(903, 32, 20, 3)
(226, 32, 20, 3)
Epoch 1/100
  1/226 [..............................] - ETA: 1:39 - loss: 0.0000e+00 - accuracy: 1.0000
…
20220211	1129	96	0.01900024525821209	5.417495412984863e-05
20220211	1129	97	0.004497393500059843	0.012608356773853302
20220211	1129	98	5.37741907464806e-05	0.02555755153298378
20220211	1129	99	0.0022485845256596804	0.001784241758286953
20220211	1129	100	0.0035400704946368933	0.005877209361642599
dig-s2
File Exists
ziffer_resize/NaN_D8_2020-08-24_13-13-51.jpg -1 3
dig-s3
a_output_actual/dig-s3
File Exists
Model: "sequential_3"
_________________________________________________________________
Layer (type)                 Output Shape              Param #   
=================================================================
batch_normalization_3 (Batch (None, 32, 20, 3)         12        
_________________________________________________________________
conv2d_9 (Conv2D)            (None, 32, 20, 32)        896       
_________________________________________________________________
max_pooling2d_9 (MaxPooling2 (None, 16, 10, 32)        0         
_________________________________________________________________
conv2d_10 (Conv2D)           (None, 16, 10, 32)        9248      
_________________________________________________________________
max_pooling2d_10 (MaxPooling (None, 8, 5, 32)          0         
_________________________________________________________________
conv2d_11 (Conv2D)           (None, 8, 5, 32)          9248      
_________________________________________________________________
max_pooling2d_11 (MaxPooling (None, 4, 2, 32)          0         
_________________________________________________________________
flatten_3 (Flatten)          (None, 256)               0         
_________________________________________________________________
dense_6 (Dense)              (None, 128)               32896     
_________________________________________________________________
dense_7 (Dense)              (None, 11)                1419      
=================================================================
Total params: 53,719
Trainable params: 53,713
Non-trainable params: 6
_________________________________________________________________
1129
(1129, 32, 20, 3)
(1129, 11)
(903, 32, 20, 3)
(226, 32, 20, 3)
Epoch 1/100
  1/226 [..............................] - ETA: 1:38 - loss: 8.9407e-08 - accuracy: 1.0000
…
