…
in: ziffer_raw/NaN_20200911-170139_ROI5.jpg  -  out: ziffer_resize/NaN_20200911-170139_ROI5.jpg
in: ziffer_raw/NaN_digit8_213207.jpg  -  out: ziffer_resize/NaN_digit8_213207.jpg
in: ziffer_raw/NaN_D8_2020-08-23_12-51-27.jpg  -  out: ziffer_resize/NaN_D8_2020-08-23_12-51-27.jpg
in: ziffer_raw/NaN_D8_2020-08-16_15-50-49.jpg  -  out: ziffer_resize/NaN_D8_2020-08-16_15-50-49.jpg
dig-s0
a_output_actual/dig-s0
File Exists
Model: "sequential"
_________________________________________________________________
 Layer (type)                Output Shape              Param #   
=================================================================
 batch_normalization (BatchN  (None, 32, 20, 3)        12        
 ormalization)                                                   
                                                                 
 conv2d (Conv2D)             (None, 32, 20, 32)        896       
                                                                 
 max_pooling2d (MaxPooling2D  (None, 16, 10, 32)       0         
 )                                                               
                                                                 
 conv2d_1 (Conv2D)           (None, 16, 10, 64)        18496     
                                                                 
 max_pooling2d_1 (MaxPooling  (None, 8, 5, 64)         0         
 2D)                                                             
                                                                 
 conv2d_2 (Conv2D)           (None, 8, 5, 64)          36928     
                                                                 
 max_pooling2d_2 (MaxPooling  (None, 4, 2, 64)         0         
 2D)                                                             
                                                                 
 flatten (Flatten)           (None, 512)               0         
                                                                 
 dense (Dense)               (None, 512)               262656    
                                                                 
 dense_1 (Dense)             (None, 11)                5643      
                                                                 
=================================================================
Total params: 324,631
Trainable params: 324,625
Non-trainable params: 6
_________________________________________________________________
1150
(1150, 32, 20, 3)
(1150, 11)
(920, 32, 20, 3)
(230, 32, 20, 3)
Epoch 1/100
  1/230 [..............................] -
…
06 - accuracy: 1.0000230/230 [==============================] - 2s 10ms/step - loss: 4.2687e-06 - accuracy: 1.0000 - val_loss: 0.0205 - val_accuracy: 0.9957
dig-s0
File Exists
ziffer_resize/1_arbitrary_20220227.jpg 1 4
dig-s1
a_output_actual/dig-s1
File Exists
Model: "sequential_1"
_________________________________________________________________
 Layer (type)                Output Shape              Param #   
=================================================================
 batch_normalization_1 (Batc  (None, 32, 20, 3)        12        
 hNormalization)                                                 
                                                                 
 conv2d_3 (Conv2D)           (None, 32, 20, 32)        896       
                                                                 
 max_pooling2d_3 (MaxPooling  (None, 16, 10, 32)       0         
 2D)                                                             
                                                                 
 conv2d_4 (Conv2D)           (None, 16, 10, 64)        18496     
                                                                 
 max_pooling2d_4 (MaxPooling  (None, 8, 5, 64)         0         
 2D)                                                             
                                                                 
 conv2d_5 (Conv2D)           (None, 8, 5, 64)          36928     
                                                                 
 max_pooling2d_5 (MaxPooling  (None, 4, 2, 64)         0         
 2D)                                                             
                                                                 
 flatten_1 (Flatten)         (None, 512)               0         
                                                                 
 dense_2 (Dense)             (None, 256)               131328    
                                                                 
 dense_3 (Dense)             (None, 11)                2827      
                                                                 
=================================================================
Total params: 190,487
Trainable params: 190,481
Non-trainable params: 6
_________________________________________________________________
1150
(1150, 32, 20, 3)
(1150, 11)
(920, 32, 20, 3)
(230, 32, 20, 3)
Epoch 1/100
  1/230 [..............................] -
…
20220227	1150	96	0.0008716465090401471	0.04411407932639122
20220227	1150	97	0.002372835762798786	0.004598467610776424
20220227	1150	98	2.41643761000887e-07	1.606731103720449e-08
20220227	1150	99	0.0005706349038518965	1.249434717465192e-05
20220227	1150	100	0.05218343064188957	0.0002612939279060811
dig-s1
File Exists
dig-s2
a_output_actual/dig-s2
File Exists
Model: "sequential_2"
_________________________________________________________________
 Layer (type)                Output Shape              Param #   
=================================================================
 batch_normalization_2 (Batc  (None, 32, 20, 3)        12        
 hNormalization)                                                 
                                                                 
 conv2d_6 (Conv2D)           (None, 32, 20, 32)        896       
                                                                 
 max_pooling2d_6 (MaxPooling  (None, 16, 10, 32)       0         
 2D)                                                             
                                                                 
 conv2d_7 (Conv2D)           (None, 16, 10, 32)        9248      
                                                                 
 max_pooling2d_7 (MaxPooling  (None, 8, 5, 32)         0         
 2D)                                                             
                                                                 
 conv2d_8 (Conv2D)           (None, 8, 5, 32)          9248      
                                                                 
 max_pooling2d_8 (MaxPooling  (None, 4, 2, 32)         0         
 2D)                                                             
                                                                 
 flatten_2 (Flatten)         (None, 256)               0         
                                                                 
 dense_4 (Dense)             (None, 256)               65792     
                                                                 
 dense_5 (Dense)             (None, 11)                2827      
                                                                 
=================================================================
Total params: 88,023
Trainable params: 88,017
Non-trainable params: 6
_________________________________________________________________
1150
(1150, 32, 20, 3)
(1150, 11)
(920, 32, 20, 3)
(230, 32, 20, 3)
Epoch 1/100
  1/230 [..............................] - E
…
20220227	1150	96	9.864657840807922e-06	0.053454991430044174
20220227	1150	97	9.20881429919973e-05	0.04385317862033844
20220227	1150	98	0.002431444125249982	0.026491664350032806
20220227	1150	99	0.01608922705054283	0.0757024884223938
20220227	1150	100	0.037179864943027496	0.028894968330860138
dig-s2
File Exists
ziffer_resize/6_dig5_20220106-020809.jpg 6 0
dig-s3
a_output_actual/dig-s3
File Exists
Model: "sequential_3"
_________________________________________________________________
 Layer (type)                Output Shape              Param #   
=================================================================
 batch_normalization_3 (Batc  (None, 32, 20, 3)        12        
 hNormalization)                                                 
                                                                 
 conv2d_9 (Conv2D)           (None, 32, 20, 32)        896       
                                                                 
 max_pooling2d_9 (MaxPooling  (None, 16, 10, 32)       0         
 2D)                                                             
                                                                 
 conv2d_10 (Conv2D)          (None, 16, 10, 32)        9248      
                                                                 
 max_pooling2d_10 (MaxPoolin  (None, 8, 5, 32)         0         
 g2D)                                                            
                                                                 
 conv2d_11 (Conv2D)          (None, 8, 5, 32)          9248      
                                                                 
 max_pooling2d_11 (MaxPoolin  (None, 4, 2, 32)         0         
 g2D)                                                            
                                                                 
 flatten_3 (Flatten)         (None, 256)               0         
                                                                 
 dense_6 (Dense)             (None, 128)               32896     
                                                                 
 dense_7 (Dense)             (None, 11)                1419      
                                                                 
=================================================================
Total params: 53,719
Trainable params: 53,713
Non-trainable params: 6
_________________________________________________________________
1150
(1150, 32, 20, 3)
(1150, 11)
(920, 32, 20, 3)
(230, 32, 20, 3)
Epoch 1/100
  1/230 [..............................] - E
…
