…
in: ziffer_raw/NaN_Ziffer_NaN_0803.jpg  -  out: ziffer_resize/NaN_Ziffer_NaN_0803.jpg
in: ziffer_raw/7_0_dig6_20210629-193212.jpg  -  out: ziffer_resize/7_0_dig6_20210629-193212.jpg
in: ziffer_raw/2_1.jpg  -  out: ziffer_resize/2_1.jpg
in: ziffer_raw/NaN_Ziffer_NaN_1284.jpg  -  out: ziffer_resize/NaN_Ziffer_NaN_1284.jpg
dig-s0
a_output_actual/dig-s0
File Exists
Model: "sequential"
_________________________________________________________________
Layer (type)                 Output Shape              Param #   
=================================================================
batch_normalization (BatchNo (None, 32, 20, 3)         12        
_________________________________________________________________
conv2d (Conv2D)              (None, 32, 20, 32)        896       
_________________________________________________________________
max_pooling2d (MaxPooling2D) (None, 16, 10, 32)        0         
_________________________________________________________________
conv2d_1 (Conv2D)            (None, 16, 10, 64)        18496     
_________________________________________________________________
max_pooling2d_1 (MaxPooling2 (None, 8, 5, 64)          0         
_________________________________________________________________
conv2d_2 (Conv2D)            (None, 8, 5, 64)          36928     
_________________________________________________________________
max_pooling2d_2 (MaxPooling2 (None, 4, 2, 64)          0         
_________________________________________________________________
flatten (Flatten)            (None, 512)               0         
_________________________________________________________________
dense (Dense)                (None, 512)               262656    
_________________________________________________________________
dense_1 (Dense)              (None, 11)                5643      
=================================================================
Total params: 324,631
Trainable params: 324,625
Non-trainable params: 6
_________________________________________________________________
1106
(1106, 32, 20, 3)
(1106, 11)
(884, 32, 20, 3)
(222, 32, 20, 3)
Epoch 1/100
  1/221 [..............................] - ETA: 1:38 - loss: 8.9407e-07 - accuracy: 1.0000
…
188 - accuracy: 0.9984221/221 [==============================] - 2s 7ms/step - loss: 0.0189 - accuracy: 0.9983 - val_loss: 2.7183e-05 - val_accuracy: 1.0000
dig-s0
File Exists
ziffer_resize/5_5_ROI4_20210418-173416.jpg 5 -1
dig-s1
a_output_actual/dig-s1
File Exists
Model: "sequential_1"
_________________________________________________________________
Layer (type)                 Output Shape              Param #   
=================================================================
batch_normalization_1 (Batch (None, 32, 20, 3)         12        
_________________________________________________________________
conv2d_3 (Conv2D)            (None, 32, 20, 32)        896       
_________________________________________________________________
max_pooling2d_3 (MaxPooling2 (None, 16, 10, 32)        0         
_________________________________________________________________
conv2d_4 (Conv2D)            (None, 16, 10, 64)        18496     
_________________________________________________________________
max_pooling2d_4 (MaxPooling2 (None, 8, 5, 64)          0         
_________________________________________________________________
conv2d_5 (Conv2D)            (None, 8, 5, 64)          36928     
_________________________________________________________________
max_pooling2d_5 (MaxPooling2 (None, 4, 2, 64)          0         
_________________________________________________________________
flatten_1 (Flatten)          (None, 512)               0         
_________________________________________________________________
dense_2 (Dense)              (None, 256)               131328    
_________________________________________________________________
dense_3 (Dense)              (None, 11)                2827      
=================================================================
Total params: 190,487
Trainable params: 190,481
Non-trainable params: 6
_________________________________________________________________
1106
(1106, 32, 20, 3)
(1106, 11)
(884, 32, 20, 3)
(222, 32, 20, 3)
Epoch 1/100
  1/221 [..............................] - ETA: 1:21 - loss: 0.0027 - accuracy: 1.0000
…
20220206	1106	96	0.009914668276906013	0.0029103111010044813
20220206	1106	97	0.001178476493805647	0.010362564586102962
20220206	1106	98	0.02734498679637909	0.00022173365869093686
20220206	1106	99	0.01593703404068947	8.70401663632947e-07
20220206	1106	100	0.00961762573570013	0.032589465379714966
dig-s1
File Exists
dig-s2
a_output_actual/dig-s2
File Exists
Model: "sequential_2"
_________________________________________________________________
Layer (type)                 Output Shape              Param #   
=================================================================
batch_normalization_2 (Batch (None, 32, 20, 3)         12        
_________________________________________________________________
conv2d_6 (Conv2D)            (None, 32, 20, 32)        896       
_________________________________________________________________
max_pooling2d_6 (MaxPooling2 (None, 16, 10, 32)        0         
_________________________________________________________________
conv2d_7 (Conv2D)            (None, 16, 10, 32)        9248      
_________________________________________________________________
max_pooling2d_7 (MaxPooling2 (None, 8, 5, 32)          0         
_________________________________________________________________
conv2d_8 (Conv2D)            (None, 8, 5, 32)          9248      
_________________________________________________________________
max_pooling2d_8 (MaxPooling2 (None, 4, 2, 32)          0         
_________________________________________________________________
flatten_2 (Flatten)          (None, 256)               0         
_________________________________________________________________
dense_4 (Dense)              (None, 256)               65792     
_________________________________________________________________
dense_5 (Dense)              (None, 11)                2827      
=================================================================
Total params: 88,023
Trainable params: 88,017
Non-trainable params: 6
_________________________________________________________________
1106
(1106, 32, 20, 3)
(1106, 11)
(884, 32, 20, 3)
(222, 32, 20, 3)
Epoch 1/100
  1/221 [..............................] - ETA: 1:23 - loss: 0.0000e+00 - accuracy: 1.0000
…
20220206	1106	96	0.00010399355232948437	0.03274371102452278
20220206	1106	97	0.00025558361085131764	0.026245877146720886
20220206	1106	98	0.02317364141345024	0.00011925246508326381
20220206	1106	99	0.004023628309369087	0.016510087996721268
20220206	1106	100	0.015105603262782097	0.0036927363835275173
dig-s2
File Exists
ziffer_resize/6_dig5_20220106-020809.jpg 6 0
dig-s3
a_output_actual/dig-s3
File Exists
Model: "sequential_3"
_________________________________________________________________
Layer (type)                 Output Shape              Param #   
=================================================================
batch_normalization_3 (Batch (None, 32, 20, 3)         12        
_________________________________________________________________
conv2d_9 (Conv2D)            (None, 32, 20, 32)        896       
_________________________________________________________________
max_pooling2d_9 (MaxPooling2 (None, 16, 10, 32)        0         
_________________________________________________________________
conv2d_10 (Conv2D)           (None, 16, 10, 32)        9248      
_________________________________________________________________
max_pooling2d_10 (MaxPooling (None, 8, 5, 32)          0         
_________________________________________________________________
conv2d_11 (Conv2D)           (None, 8, 5, 32)          9248      
_________________________________________________________________
max_pooling2d_11 (MaxPooling (None, 4, 2, 32)          0         
_________________________________________________________________
flatten_3 (Flatten)          (None, 256)               0         
_________________________________________________________________
dense_6 (Dense)              (None, 128)               32896     
_________________________________________________________________
dense_7 (Dense)              (None, 11)                1419      
=================================================================
Total params: 53,719
Trainable params: 53,713
Non-trainable params: 6
_________________________________________________________________
1106
(1106, 32, 20, 3)
(1106, 11)
(884, 32, 20, 3)
(222, 32, 20, 3)
Epoch 1/100
  1/221 [..............................] - ETA: 1:20 - loss: 9.1492e-06 - accuracy: 1.0000
…
