…
in: ziffer_raw/8_8_ht6_20210629-164042.jpg  -  out: ziffer_resize/8_8_ht6_20210629-164042.jpg
in: ziffer_raw/8.0_github417_2.jpg  -  out: ziffer_resize/8.0_github417_2.jpg
in: ziffer_raw/6_6b.jpg  -  out: ziffer_resize/6_6b.jpg
in: ziffer_raw/4_3.jpg  -  out: ziffer_resize/4_3.jpg
in: ziffer_raw/NaN_Ziffer_NaN_0442.jpg  -  out: ziffer_resize/NaN_Ziffer_NaN_0442.jpg
dig-s0
a_output_actual/dig-s0
File Exists
Model: "sequential"
_________________________________________________________________
Layer (type)                 Output Shape              Param #   
=================================================================
batch_normalization (BatchNo (None, 32, 20, 3)         12        
_________________________________________________________________
conv2d (Conv2D)              (None, 32, 20, 32)        896       
_________________________________________________________________
max_pooling2d (MaxPooling2D) (None, 16, 10, 32)        0         
_________________________________________________________________
conv2d_1 (Conv2D)            (None, 16, 10, 64)        18496     
_________________________________________________________________
max_pooling2d_1 (MaxPooling2 (None, 8, 5, 64)          0         
_________________________________________________________________
conv2d_2 (Conv2D)            (None, 8, 5, 64)          36928     
_________________________________________________________________
max_pooling2d_2 (MaxPooling2 (None, 4, 2, 64)          0         
_________________________________________________________________
flatten (Flatten)            (None, 512)               0         
_________________________________________________________________
dense (Dense)                (None, 512)               262656    
_________________________________________________________________
dense_1 (Dense)              (None, 11)                5643      
=================================================================
Total params: 324,631
Trainable params: 324,625
Non-trainable params: 6
_________________________________________________________________
992
(992, 32, 20, 3)
(992, 11)
(793, 32, 20, 3)
(199, 32, 20, 3)
Epoch 1/100
  1/199 [..............................] - ETA: 1:48 - loss: 1.3113e-06 - accuracy: 1.0000
…
 0.0084 - accuracy: 0.9982199/199 [==============================] - 2s 10ms/step - loss: 0.0083 - accuracy: 0.9982 - val_loss: 0.0168 - val_accuracy: 0.9899
dig-s0
File Exists
ziffer_resize/9_9_ROI4_20210501-210646.jpg 9 8
dig-s1
a_output_actual/dig-s1
File Exists
Model: "sequential_1"
_________________________________________________________________
Layer (type)                 Output Shape              Param #   
=================================================================
batch_normalization_1 (Batch (None, 32, 20, 3)         12        
_________________________________________________________________
conv2d_3 (Conv2D)            (None, 32, 20, 32)        896       
_________________________________________________________________
max_pooling2d_3 (MaxPooling2 (None, 16, 10, 32)        0         
_________________________________________________________________
conv2d_4 (Conv2D)            (None, 16, 10, 64)        18496     
_________________________________________________________________
max_pooling2d_4 (MaxPooling2 (None, 8, 5, 64)          0         
_________________________________________________________________
conv2d_5 (Conv2D)            (None, 8, 5, 64)          36928     
_________________________________________________________________
max_pooling2d_5 (MaxPooling2 (None, 4, 2, 64)          0         
_________________________________________________________________
flatten_1 (Flatten)          (None, 512)               0         
_________________________________________________________________
dense_2 (Dense)              (None, 256)               131328    
_________________________________________________________________
dense_3 (Dense)              (None, 11)                2827      
=================================================================
Total params: 190,487
Trainable params: 190,481
Non-trainable params: 6
_________________________________________________________________
992
(992, 32, 20, 3)
(992, 11)
(793, 32, 20, 3)
(199, 32, 20, 3)
Epoch 1/100
  1/199 [..............................] - ETA: 1:30 - loss: 0.0000e+00 - accuracy: 1.0000
…
20211227	992	97	0.0027337349019944668	0.010315426625311375
20211227	992	98	2.7984460757579654e-06	0.02648252062499523
20211227	992	99	0.005456878338009119	0.1420203298330307
20211227	992	100	0.002923304680734873	0.0656781941652298
dig-s1
File Exists
ziffer_resize/0_0_nt1_20210626-090405.jpg 0 -1
ziffer_resize/4_D5_2020-08-20_17-24-21.jpg 4 -1
dig-s2
a_output_actual/dig-s2
File Exists
Model: "sequential_2"
_________________________________________________________________
Layer (type)                 Output Shape              Param #   
=================================================================
batch_normalization_2 (Batch (None, 32, 20, 3)         12        
_________________________________________________________________
conv2d_6 (Conv2D)            (None, 32, 20, 32)        896       
_________________________________________________________________
max_pooling2d_6 (MaxPooling2 (None, 16, 10, 32)        0         
_________________________________________________________________
conv2d_7 (Conv2D)            (None, 16, 10, 32)        9248      
_________________________________________________________________
max_pooling2d_7 (MaxPooling2 (None, 8, 5, 32)          0         
_________________________________________________________________
conv2d_8 (Conv2D)            (None, 8, 5, 32)          9248      
_________________________________________________________________
max_pooling2d_8 (MaxPooling2 (None, 4, 2, 32)          0         
_________________________________________________________________
flatten_2 (Flatten)          (None, 256)               0         
_________________________________________________________________
dense_4 (Dense)              (None, 256)               65792     
_________________________________________________________________
dense_5 (Dense)              (None, 11)                2827      
=================================================================
Total params: 88,023
Trainable params: 88,017
Non-trainable params: 6
_________________________________________________________________
992
(992, 32, 20, 3)
(992, 11)
(793, 32, 20, 3)
(199, 32, 20, 3)
Epoch 1/100
  1/199 [..............................] - ETA: 1:33 - loss: 9.5367e-07 - accuracy: 1.0000
…
20211227	992	98	0.01766420155763626	0.040842004120349884
20211227	992	99	0.007861752063035965	0.0005142032168805599
20211227	992	100	0.004222936928272247	0.1488794982433319
dig-s2
File Exists
ziffer_resize/3_D8_2020-08-25_12-14-40.jpg 3 9
ziffer_resize/5_5_ROI4_20210418-173416.jpg 5 -1
ziffer_resize/6_ziffer5_2019-11-17_14-25-03.jpg 6 -1
dig-s3
a_output_actual/dig-s3
File Exists
Model: "sequential_3"
_________________________________________________________________
Layer (type)                 Output Shape              Param #   
=================================================================
batch_normalization_3 (Batch (None, 32, 20, 3)         12        
_________________________________________________________________
conv2d_9 (Conv2D)            (None, 32, 20, 32)        896       
_________________________________________________________________
max_pooling2d_9 (MaxPooling2 (None, 16, 10, 32)        0         
_________________________________________________________________
conv2d_10 (Conv2D)           (None, 16, 10, 32)        9248      
_________________________________________________________________
max_pooling2d_10 (MaxPooling (None, 8, 5, 32)          0         
_________________________________________________________________
conv2d_11 (Conv2D)           (None, 8, 5, 32)          9248      
_________________________________________________________________
max_pooling2d_11 (MaxPooling (None, 4, 2, 32)          0         
_________________________________________________________________
flatten_3 (Flatten)          (None, 256)               0         
_________________________________________________________________
dense_6 (Dense)              (None, 128)               32896     
_________________________________________________________________
dense_7 (Dense)              (None, 11)                1419      
=================================================================
Total params: 53,719
Trainable params: 53,713
Non-trainable params: 6
_________________________________________________________________
992
(992, 32, 20, 3)
(992, 11)
(793, 32, 20, 3)
(199, 32, 20, 3)
Epoch 1/100
  1/199 [..............................] - ETA: 1:30 - loss: 1.8060e-05 - accuracy: 1.0000
…
