…
in: ziffer_raw/NaN_Ziffer_NaN_0590.jpg  -  out: ziffer_resize/NaN_Ziffer_NaN_0590.jpg
in: ziffer_raw/NaN_2_ROI3_20210309-072539.jpg  -  out: ziffer_resize/NaN_2_ROI3_20210309-072539.jpg
in: ziffer_raw/NaN_D8_2020-08-14_19-11-52.jpg  -  out: ziffer_resize/NaN_D8_2020-08-14_19-11-52.jpg
in: ziffer_raw/NaN_5_dig5_20210629-201316.jpg  -  out: ziffer_resize/NaN_5_dig5_20210629-201316.jpg
dig-s0
a_output_actual/dig-s0
File Exists
Model: "sequential"
_________________________________________________________________
Layer (type)                 Output Shape              Param #   
=================================================================
batch_normalization (BatchNo (None, 32, 20, 3)         12        
_________________________________________________________________
conv2d (Conv2D)              (None, 32, 20, 32)        896       
_________________________________________________________________
max_pooling2d (MaxPooling2D) (None, 16, 10, 32)        0         
_________________________________________________________________
conv2d_1 (Conv2D)            (None, 16, 10, 64)        18496     
_________________________________________________________________
max_pooling2d_1 (MaxPooling2 (None, 8, 5, 64)          0         
_________________________________________________________________
conv2d_2 (Conv2D)            (None, 8, 5, 64)          36928     
_________________________________________________________________
max_pooling2d_2 (MaxPooling2 (None, 4, 2, 64)          0         
_________________________________________________________________
flatten (Flatten)            (None, 512)               0         
_________________________________________________________________
dense (Dense)                (None, 512)               262656    
_________________________________________________________________
dense_1 (Dense)              (None, 11)                5643      
=================================================================
Total params: 324,631
Trainable params: 324,625
Non-trainable params: 6
_________________________________________________________________
1079
(1079, 32, 20, 3)
(1079, 11)
(863, 32, 20, 3)
(216, 32, 20, 3)
Epoch 1/100
  1/216 [..............................] - ETA: 2:13 - loss: 0.0000e+00 - accuracy: 1.0000
…
9861
dig-s0
File Exists
ziffer_resize/5_5_ROI4_20210418-173416.jpg 5 -1
ziffer_resize/6_dig5_20220106-020809.jpg 6 0
ziffer_resize/6_dig6_20220106-071435.jpg 6 0
ziffer_resize/NaN_0_ht6_20210628-182853.jpg -1 9
ziffer_resize/NaN_20200911-182857_ROI5.jpg -1 3
ziffer_resize/NaN_6_dig6_20210720-121946.jpg -1 4
dig-s1
a_output_actual/dig-s1
File Exists
Model: "sequential_1"
_________________________________________________________________
Layer (type)                 Output Shape              Param #   
=================================================================
batch_normalization_1 (Batch (None, 32, 20, 3)         12        
_________________________________________________________________
conv2d_3 (Conv2D)            (None, 32, 20, 32)        896       
_________________________________________________________________
max_pooling2d_3 (MaxPooling2 (None, 16, 10, 32)        0         
_________________________________________________________________
conv2d_4 (Conv2D)            (None, 16, 10, 64)        18496     
_________________________________________________________________
max_pooling2d_4 (MaxPooling2 (None, 8, 5, 64)          0         
_________________________________________________________________
conv2d_5 (Conv2D)            (None, 8, 5, 64)          36928     
_________________________________________________________________
max_pooling2d_5 (MaxPooling2 (None, 4, 2, 64)          0         
_________________________________________________________________
flatten_1 (Flatten)          (None, 512)               0         
_________________________________________________________________
dense_2 (Dense)              (None, 256)               131328    
_________________________________________________________________
dense_3 (Dense)              (None, 11)                2827      
=================================================================
Total params: 190,487
Trainable params: 190,481
Non-trainable params: 6
_________________________________________________________________
1079
(1079, 32, 20, 3)
(1079, 11)
(863, 32, 20, 3)
(216, 32, 20, 3)
Epoch 1/100
  1/216 [..............................] - ETA: 1:43 - loss: 8.9407e-08 - accuracy: 1.0000
…
20220129	1079	99	0.007426080293953419	0.010149492882192135
20220129	1079	100	0.005535238888114691	0.052439115941524506
dig-s1
File Exists
ziffer_resize/3_main_dig5.jpg 3 8
ziffer_resize/4_10_ht6_20210703-070449.jpg 4 -1
ziffer_resize/4_1_ht6_20210627-202210.jpg 4 -1
ziffer_resize/NaN_0_ht6_20210628-182853.jpg -1 9
ziffer_resize/NaN_1_dig5_20210716-155438.jpg -1 1
dig-s2
a_output_actual/dig-s2
File Exists
Model: "sequential_2"
_________________________________________________________________
Layer (type)                 Output Shape              Param #   
=================================================================
batch_normalization_2 (Batch (None, 32, 20, 3)         12        
_________________________________________________________________
conv2d_6 (Conv2D)            (None, 32, 20, 32)        896       
_________________________________________________________________
max_pooling2d_6 (MaxPooling2 (None, 16, 10, 32)        0         
_________________________________________________________________
conv2d_7 (Conv2D)            (None, 16, 10, 32)        9248      
_________________________________________________________________
max_pooling2d_7 (MaxPooling2 (None, 8, 5, 32)          0         
_________________________________________________________________
conv2d_8 (Conv2D)            (None, 8, 5, 32)          9248      
_________________________________________________________________
max_pooling2d_8 (MaxPooling2 (None, 4, 2, 32)          0         
_________________________________________________________________
flatten_2 (Flatten)          (None, 256)               0         
_________________________________________________________________
dense_4 (Dense)              (None, 256)               65792     
_________________________________________________________________
dense_5 (Dense)              (None, 11)                2827      
=================================================================
Total params: 88,023
Trainable params: 88,017
Non-trainable params: 6
_________________________________________________________________
1079
(1079, 32, 20, 3)
(1079, 11)
(863, 32, 20, 3)
(216, 32, 20, 3)
Epoch 1/100
  1/216 [..............................] - ETA: 1:42 - loss: 5.5286e-04 - accuracy: 1.0000
…
20220129	1079	98	0.05257811397314072	0.6067894101142883
20220129	1079	99	0.01973489671945572	0.477248877286911
20220129	1079	100	0.014193534851074219	0.16320371627807617
dig-s2
File Exists
ziffer_resize/0_dig6_20220106-181929.jpg 0 6
ziffer_resize/3_main_dig5.jpg 3 8
ziffer_resize/9_9.jpg 9 8
ziffer_resize/NaN_1_dig5_20210716-155438.jpg -1 1
dig-s3
a_output_actual/dig-s3
File Exists
Model: "sequential_3"
_________________________________________________________________
Layer (type)                 Output Shape              Param #   
=================================================================
batch_normalization_3 (Batch (None, 32, 20, 3)         12        
_________________________________________________________________
conv2d_9 (Conv2D)            (None, 32, 20, 32)        896       
_________________________________________________________________
max_pooling2d_9 (MaxPooling2 (None, 16, 10, 32)        0         
_________________________________________________________________
conv2d_10 (Conv2D)           (None, 16, 10, 32)        9248      
_________________________________________________________________
max_pooling2d_10 (MaxPooling (None, 8, 5, 32)          0         
_________________________________________________________________
conv2d_11 (Conv2D)           (None, 8, 5, 32)          9248      
_________________________________________________________________
max_pooling2d_11 (MaxPooling (None, 4, 2, 32)          0         
_________________________________________________________________
flatten_3 (Flatten)          (None, 256)               0         
_________________________________________________________________
dense_6 (Dense)              (None, 128)               32896     
_________________________________________________________________
dense_7 (Dense)              (None, 11)                1419      
=================================================================
Total params: 53,719
Trainable params: 53,713
Non-trainable params: 6
_________________________________________________________________
1079
(1079, 32, 20, 3)
(1079, 11)
(863, 32, 20, 3)
(216, 32, 20, 3)
Epoch 1/100
  1/216 [..............................] - ETA: 1:39 - loss: 0.0000e+00 - accuracy: 1.0000
…
