…
in: ziffer_raw/NaN_2_ROI3_20210309-072539.jpg  -  out: ziffer_resize/NaN_2_ROI3_20210309-072539.jpg
in: ziffer_raw/NaN_D8_2020-08-14_19-11-52.jpg  -  out: ziffer_resize/NaN_D8_2020-08-14_19-11-52.jpg
in: ziffer_raw/NaN_5_dig5_20210629-201316.jpg  -  out: ziffer_resize/NaN_5_dig5_20210629-201316.jpg
dig-s0
a_output_actual/dig-s0
Workfile does not exists - init model necessary
Loading Model ...
Bulilding model
Model: "sequential"
_________________________________________________________________
Layer (type)                 Output Shape              Param #   
=================================================================
batch_normalization (BatchNo (None, 32, 20, 3)         12        
_________________________________________________________________
conv2d (Conv2D)              (None, 32, 20, 32)        896       
_________________________________________________________________
max_pooling2d (MaxPooling2D) (None, 16, 10, 32)        0         
_________________________________________________________________
conv2d_1 (Conv2D)            (None, 16, 10, 64)        18496     
_________________________________________________________________
max_pooling2d_1 (MaxPooling2 (None, 8, 5, 64)          0         
_________________________________________________________________
conv2d_2 (Conv2D)            (None, 8, 5, 64)          36928     
_________________________________________________________________
max_pooling2d_2 (MaxPooling2 (None, 4, 2, 64)          0         
_________________________________________________________________
flatten (Flatten)            (None, 512)               0         
_________________________________________________________________
dense (Dense)                (None, 512)               262656    
_________________________________________________________________
dense_1 (Dense)              (None, 11)                5643      
=================================================================
Total params: 324,631
Trainable params: 324,625
Non-trainable params: 6
_________________________________________________________________
1079
(1079, 32, 20, 3)
(1079, 11)
(863, 32, 20, 3)
(216, 32, 20, 3)
Epoch 1/100
  1/216 [..............................] - ETA: 1:39 - loss: 2.3796 - accuracy: 0.0000e+00
…
ziffer_resize/1_D5_2020-08-16_02-14-25.jpg 1 7
ziffer_resize/3.0_dig1_20211011-101735.jpg 3 9
ziffer_resize/5_5_ROI4_20210418-173416.jpg 5 6
ziffer_resize/8.0_01.jpg 8 6
ziffer_resize/NaN_Ziffer_NaN_2548.jpg -1 1
ziffer_resize/NaN_ziffer5_2020-04-16_11-40-06.jpg -1 6
dig-s1
a_output_actual/dig-s1
Workfile does not exists - init model necessary
Loading Model ...
Model: "sequential_1"
_________________________________________________________________
Layer (type)                 Output Shape              Param #   
=================================================================
batch_normalization_1 (Batch (None, 32, 20, 3)         12        
_________________________________________________________________
conv2d_3 (Conv2D)            (None, 32, 20, 32)        896       
_________________________________________________________________
max_pooling2d_3 (MaxPooling2 (None, 16, 10, 32)        0         
_________________________________________________________________
conv2d_4 (Conv2D)            (None, 16, 10, 64)        18496     
_________________________________________________________________
max_pooling2d_4 (MaxPooling2 (None, 8, 5, 64)          0         
_________________________________________________________________
conv2d_5 (Conv2D)            (None, 8, 5, 64)          36928     
_________________________________________________________________
max_pooling2d_5 (MaxPooling2 (None, 4, 2, 64)          0         
_________________________________________________________________
flatten_1 (Flatten)          (None, 512)               0         
_________________________________________________________________
dense_2 (Dense)              (None, 256)               131328    
_________________________________________________________________
dense_3 (Dense)              (None, 11)                2827      
=================================================================
Total params: 190,487
Trainable params: 190,481
Non-trainable params: 6
_________________________________________________________________
1079
(1079, 32, 20, 3)
(1079, 11)
(863, 32, 20, 3)
(216, 32, 20, 3)
Epoch 1/100
  1/216 [..............................] - ETA: 1:21 - loss: 2.5697 - accuracy: 0.0000e+00
…
ziffer_resize/4_1_ht6_20210627-202210.jpg 4 -1
ziffer_resize/4_4_ROI2_20210605-094214a.jpg 4 9
ziffer_resize/6_dig6_20220106-071435.jpg 6 0
ziffer_resize/9 -4_6_20211231-090402.jpg 9 7
ziffer_resize/9 -7_7_20211231-110401.jpg 9 7
ziffer_resize/NaN_0_ht6_20210628-182853.jpg -1 9
dig-s2
a_output_actual/dig-s2
Workfile does not exists - init model necessary
Loading Model ...
Model: "sequential_2"
_________________________________________________________________
Layer (type)                 Output Shape              Param #   
=================================================================
batch_normalization_2 (Batch (None, 32, 20, 3)         12        
_________________________________________________________________
conv2d_6 (Conv2D)            (None, 32, 20, 32)        896       
_________________________________________________________________
max_pooling2d_6 (MaxPooling2 (None, 16, 10, 32)        0         
_________________________________________________________________
conv2d_7 (Conv2D)            (None, 16, 10, 32)        9248      
_________________________________________________________________
max_pooling2d_7 (MaxPooling2 (None, 8, 5, 32)          0         
_________________________________________________________________
conv2d_8 (Conv2D)            (None, 8, 5, 32)          9248      
_________________________________________________________________
max_pooling2d_8 (MaxPooling2 (None, 4, 2, 32)          0         
_________________________________________________________________
flatten_2 (Flatten)          (None, 256)               0         
_________________________________________________________________
dense_4 (Dense)              (None, 256)               65792     
_________________________________________________________________
dense_5 (Dense)              (None, 11)                2827      
=================================================================
Total params: 88,023
Trainable params: 88,017
Non-trainable params: 6
_________________________________________________________________
1079
(1079, 32, 20, 3)
(1079, 11)
(863, 32, 20, 3)
(216, 32, 20, 3)
Epoch 1/100
  1/216 [..............................] - ETA: 1:19 - loss: 2.2979 - accuracy: 0.2500
…
ziffer_resize/6_6f_4_digit6_20210406-111334.jpg 6 4
ziffer_resize/NaN_0_ht6_20210628-182853.jpg -1 9
ziffer_resize/NaN_1_dig5_20210716-155438.jpg -1 1
ziffer_resize/NaN_1_dig5_20210727-204545.jpg -1 1
ziffer_resize/NaN_Ziffer_NaN_1250.jpg -1 0
ziffer_resize/NaN_Ziffer_NaN_2548.jpg -1 1
dig-s3
a_output_actual/dig-s3
Workfile does not exists - init model necessary
Loading Model ...
Model: "sequential_3"
_________________________________________________________________
Layer (type)                 Output Shape              Param #   
=================================================================
batch_normalization_3 (Batch (None, 32, 20, 3)         12        
_________________________________________________________________
conv2d_9 (Conv2D)            (None, 32, 20, 32)        896       
_________________________________________________________________
max_pooling2d_9 (MaxPooling2 (None, 16, 10, 32)        0         
_________________________________________________________________
conv2d_10 (Conv2D)           (None, 16, 10, 32)        9248      
_________________________________________________________________
max_pooling2d_10 (MaxPooling (None, 8, 5, 32)          0         
_________________________________________________________________
conv2d_11 (Conv2D)           (None, 8, 5, 32)          9248      
_________________________________________________________________
max_pooling2d_11 (MaxPooling (None, 4, 2, 32)          0         
_________________________________________________________________
flatten_3 (Flatten)          (None, 256)               0         
_________________________________________________________________
dense_6 (Dense)              (None, 128)               32896     
_________________________________________________________________
dense_7 (Dense)              (None, 11)                1419      
=================================================================
Total params: 53,719
Trainable params: 53,713
Non-trainable params: 6
_________________________________________________________________
1079
(1079, 32, 20, 3)
(1079, 11)
(863, 32, 20, 3)
(216, 32, 20, 3)
Epoch 1/100
  1/216 [..............................] - ETA: 1:20 - loss: 2.3832 - accuracy: 0.0000e+00
…
