…
in: ziffer_raw/NaN_20200911-170139_ROI5.jpg  -  out: ziffer_resize/NaN_20200911-170139_ROI5.jpg
in: ziffer_raw/NaN_digit8_213207.jpg  -  out: ziffer_resize/NaN_digit8_213207.jpg
in: ziffer_raw/NaN_D8_2020-08-23_12-51-27.jpg  -  out: ziffer_resize/NaN_D8_2020-08-23_12-51-27.jpg
in: ziffer_raw/NaN_D8_2020-08-16_15-50-49.jpg  -  out: ziffer_resize/NaN_D8_2020-08-16_15-50-49.jpg
dig-s0
a_output_actual/dig-s0
File Exists
Model: "sequential"
_________________________________________________________________
 Layer (type)                Output Shape              Param #   
=================================================================
 batch_normalization (BatchN  (None, 32, 20, 3)        12        
 ormalization)                                                   
                                                                 
 conv2d (Conv2D)             (None, 32, 20, 32)        896       
                                                                 
 max_pooling2d (MaxPooling2D  (None, 16, 10, 32)       0         
 )                                                               
                                                                 
 conv2d_1 (Conv2D)           (None, 16, 10, 64)        18496     
                                                                 
 max_pooling2d_1 (MaxPooling  (None, 8, 5, 64)         0         
 2D)                                                             
                                                                 
 conv2d_2 (Conv2D)           (None, 8, 5, 64)          36928     
                                                                 
 max_pooling2d_2 (MaxPooling  (None, 4, 2, 64)         0         
 2D)                                                             
                                                                 
 flatten (Flatten)           (None, 512)               0         
                                                                 
 dense (Dense)               (None, 512)               262656    
                                                                 
 dense_1 (Dense)             (None, 11)                5643      
                                                                 
=================================================================
Total params: 324,631
Trainable params: 324,625
Non-trainable params: 6
_________________________________________________________________
1150
(1150, 32, 20, 3)
(1150, 11)
(920, 32, 20, 3)
(230, 32, 20, 3)
Epoch 1/100
  1/230 [..............................] -
…
==========>.] - ETA: 0s - loss: 3.6087e-05 - accuracy: 1.0000230/230 [==============================] - 2s 8ms/step - loss: 3.5459e-05 - accuracy: 1.0000 - val_loss: 3.2355e-04 - val_accuracy: 1.0000
dig-s0
File Exists
dig-s1
a_output_actual/dig-s1
File Exists
Model: "sequential_1"
_________________________________________________________________
 Layer (type)                Output Shape              Param #   
=================================================================
 batch_normalization_1 (Batc  (None, 32, 20, 3)        12        
 hNormalization)                                                 
                                                                 
 conv2d_3 (Conv2D)           (None, 32, 20, 32)        896       
                                                                 
 max_pooling2d_3 (MaxPooling  (None, 16, 10, 32)       0         
 2D)                                                             
                                                                 
 conv2d_4 (Conv2D)           (None, 16, 10, 64)        18496     
                                                                 
 max_pooling2d_4 (MaxPooling  (None, 8, 5, 64)         0         
 2D)                                                             
                                                                 
 conv2d_5 (Conv2D)           (None, 8, 5, 64)          36928     
                                                                 
 max_pooling2d_5 (MaxPooling  (None, 4, 2, 64)         0         
 2D)                                                             
                                                                 
 flatten_1 (Flatten)         (None, 512)               0         
                                                                 
 dense_2 (Dense)             (None, 256)               131328    
                                                                 
 dense_3 (Dense)             (None, 11)                2827      
                                                                 
=================================================================
Total params: 190,487
Trainable params: 190,481
Non-trainable params: 6
_________________________________________________________________
1150
(1150, 32, 20, 3)
(1150, 11)
(920, 32, 20, 3)
(230, 32, 20, 3)
Epoch 1/100
  1/230 [..............................] -
…
20220315	1150	96	3.9876874780020444e-07	4.219850234221667e-05
20220315	1150	97	1.0192806030318025e-06	2.5915058987635575e-09
20220315	1150	98	0.0160339567810297	2.350703471165616e-05
20220315	1150	99	0.0	8.811117169216232e-09
20220315	1150	100	6.511816081911093e-07	1.1402514132896613e-07
dig-s1
File Exists
ziffer_resize/6_dig5_20220106-020809.jpg 6 0
dig-s2
a_output_actual/dig-s2
File Exists
Model: "sequential_2"
_________________________________________________________________
 Layer (type)                Output Shape              Param #   
=================================================================
 batch_normalization_2 (Batc  (None, 32, 20, 3)        12        
 hNormalization)                                                 
                                                                 
 conv2d_6 (Conv2D)           (None, 32, 20, 32)        896       
                                                                 
 max_pooling2d_6 (MaxPooling  (None, 16, 10, 32)       0         
 2D)                                                             
                                                                 
 conv2d_7 (Conv2D)           (None, 16, 10, 32)        9248      
                                                                 
 max_pooling2d_7 (MaxPooling  (None, 8, 5, 32)         0         
 2D)                                                             
                                                                 
 conv2d_8 (Conv2D)           (None, 8, 5, 32)          9248      
                                                                 
 max_pooling2d_8 (MaxPooling  (None, 4, 2, 32)         0         
 2D)                                                             
                                                                 
 flatten_2 (Flatten)         (None, 256)               0         
                                                                 
 dense_4 (Dense)             (None, 256)               65792     
                                                                 
 dense_5 (Dense)             (None, 11)                2827      
                                                                 
=================================================================
Total params: 88,023
Trainable params: 88,017
Non-trainable params: 6
_________________________________________________________________
1150
(1150, 32, 20, 3)
(1150, 11)
(920, 32, 20, 3)
(230, 32, 20, 3)
Epoch 1/100
  1/230 [..............................] - E
…
20220315	1150	97	0.0005538437399081886	2.073204496966241e-09
20220315	1150	98	6.345957081066445e-05	0.09382256120443344
20220315	1150	99	0.007338447030633688	1.4636663763667457e-05
20220315	1150	100	0.00262437597848475	0.00023513160704169422
dig-s2
File Exists
ziffer_resize/4.0_dig5_20210924-075240.jpg 4 9
ziffer_resize/6_dig5_20220106-020809.jpg 6 0
dig-s3
a_output_actual/dig-s3
File Exists
Model: "sequential_3"
_________________________________________________________________
 Layer (type)                Output Shape              Param #   
=================================================================
 batch_normalization_3 (Batc  (None, 32, 20, 3)        12        
 hNormalization)                                                 
                                                                 
 conv2d_9 (Conv2D)           (None, 32, 20, 32)        896       
                                                                 
 max_pooling2d_9 (MaxPooling  (None, 16, 10, 32)       0         
 2D)                                                             
                                                                 
 conv2d_10 (Conv2D)          (None, 16, 10, 32)        9248      
                                                                 
 max_pooling2d_10 (MaxPoolin  (None, 8, 5, 32)         0         
 g2D)                                                            
                                                                 
 conv2d_11 (Conv2D)          (None, 8, 5, 32)          9248      
                                                                 
 max_pooling2d_11 (MaxPoolin  (None, 4, 2, 32)         0         
 g2D)                                                            
                                                                 
 flatten_3 (Flatten)         (None, 256)               0         
                                                                 
 dense_6 (Dense)             (None, 128)               32896     
                                                                 
 dense_7 (Dense)             (None, 11)                1419      
                                                                 
=================================================================
Total params: 53,719
Trainable params: 53,713
Non-trainable params: 6
_________________________________________________________________
1150
(1150, 32, 20, 3)
(1150, 11)
(920, 32, 20, 3)
(230, 32, 20, 3)
Epoch 1/100
  1/230 [..............................] - E
…
