…
in: ziffer_raw/NaN_ziffer1_2020-04-16_12-20-06.jpg  -  out: ziffer_resize/NaN_ziffer1_2020-04-16_12-20-06.jpg
in: ziffer_raw/0_0_ht1_20210628-223233.jpg  -  out: ziffer_resize/0_0_ht1_20210628-223233.jpg
in: ziffer_raw/1_digit2_2020-03-22_12-44-10.jpg  -  out: ziffer_resize/1_digit2_2020-03-22_12-44-10.jpg
in: ziffer_raw/1_c1.jpg  -  out: ziffer_resize/1_c1.jpg
in: ziffer_raw/4_b1.jpg  -  out: ziffer_resize/4_b1.jpg
dig-s0
a_output_actual/dig-s0
File Exists
Model: "sequential"
_________________________________________________________________
Layer (type)                 Output Shape              Param #   
=================================================================
batch_normalization (BatchNo (None, 32, 20, 3)         12        
_________________________________________________________________
conv2d (Conv2D)              (None, 32, 20, 32)        896       
_________________________________________________________________
max_pooling2d (MaxPooling2D) (None, 16, 10, 32)        0         
_________________________________________________________________
conv2d_1 (Conv2D)            (None, 16, 10, 64)        18496     
_________________________________________________________________
max_pooling2d_1 (MaxPooling2 (None, 8, 5, 64)          0         
_________________________________________________________________
conv2d_2 (Conv2D)            (None, 8, 5, 64)          36928     
_________________________________________________________________
max_pooling2d_2 (MaxPooling2 (None, 4, 2, 64)          0         
_________________________________________________________________
flatten (Flatten)            (None, 512)               0         
_________________________________________________________________
dense (Dense)                (None, 512)               262656    
_________________________________________________________________
dense_1 (Dense)              (None, 11)                5643      
=================================================================
Total params: 324,631
Trainable params: 324,625
Non-trainable params: 6
_________________________________________________________________
1027
(1027, 32, 20, 3)
(1027, 11)
(821, 32, 20, 3)
(206, 32, 20, 3)
Epoch 1/100
  1/206 [..............................] - ETA: 2:11 - loss: 0.0000e+00 - accuracy: 1.0000
…
.0021 - accuracy: 0.9998206/206 [==============================] - 2s 9ms/step - loss: 0.0024 - accuracy: 0.9998 - val_loss: 3.2737e-05 - val_accuracy: 1.0000
dig-s0
File Exists
ziffer_resize/0_0_nt1_20210626-090405.jpg 0 6
dig-s1
a_output_actual/dig-s1
File Exists
Model: "sequential_1"
_________________________________________________________________
Layer (type)                 Output Shape              Param #   
=================================================================
batch_normalization_1 (Batch (None, 32, 20, 3)         12        
_________________________________________________________________
conv2d_3 (Conv2D)            (None, 32, 20, 32)        896       
_________________________________________________________________
max_pooling2d_3 (MaxPooling2 (None, 16, 10, 32)        0         
_________________________________________________________________
conv2d_4 (Conv2D)            (None, 16, 10, 64)        18496     
_________________________________________________________________
max_pooling2d_4 (MaxPooling2 (None, 8, 5, 64)          0         
_________________________________________________________________
conv2d_5 (Conv2D)            (None, 8, 5, 64)          36928     
_________________________________________________________________
max_pooling2d_5 (MaxPooling2 (None, 4, 2, 64)          0         
_________________________________________________________________
flatten_1 (Flatten)          (None, 512)               0         
_________________________________________________________________
dense_2 (Dense)              (None, 256)               131328    
_________________________________________________________________
dense_3 (Dense)              (None, 11)                2827      
=================================================================
Total params: 190,487
Trainable params: 190,481
Non-trainable params: 6
_________________________________________________________________
1027
(1027, 32, 20, 3)
(1027, 11)
(821, 32, 20, 3)
(206, 32, 20, 3)
Epoch 1/100
  1/206 [..............................] - ETA: 1:40 - loss: 2.9802e-08 - accuracy: 1.0000
…
20220103	1027	96	3.0481713110930286e-05	6.191911694486407e-08
20220103	1027	97	0.018080322071909904	0.01638992689549923
20220103	1027	98	0.009661856107413769	0.007152795325964689
20220103	1027	99	0.01669176109135151	0.011464642360806465
20220103	1027	100	0.0037595764733850956	0.0632353350520134
dig-s1
File Exists
ziffer_resize/NaN_6_ROI6_20210218-112840.jpg -1 5
dig-s2
a_output_actual/dig-s2
File Exists
Model: "sequential_2"
_________________________________________________________________
Layer (type)                 Output Shape              Param #   
=================================================================
batch_normalization_2 (Batch (None, 32, 20, 3)         12        
_________________________________________________________________
conv2d_6 (Conv2D)            (None, 32, 20, 32)        896       
_________________________________________________________________
max_pooling2d_6 (MaxPooling2 (None, 16, 10, 32)        0         
_________________________________________________________________
conv2d_7 (Conv2D)            (None, 16, 10, 32)        9248      
_________________________________________________________________
max_pooling2d_7 (MaxPooling2 (None, 8, 5, 32)          0         
_________________________________________________________________
conv2d_8 (Conv2D)            (None, 8, 5, 32)          9248      
_________________________________________________________________
max_pooling2d_8 (MaxPooling2 (None, 4, 2, 32)          0         
_________________________________________________________________
flatten_2 (Flatten)          (None, 256)               0         
_________________________________________________________________
dense_4 (Dense)              (None, 256)               65792     
_________________________________________________________________
dense_5 (Dense)              (None, 11)                2827      
=================================================================
Total params: 88,023
Trainable params: 88,017
Non-trainable params: 6
_________________________________________________________________
1027
(1027, 32, 20, 3)
(1027, 11)
(821, 32, 20, 3)
(206, 32, 20, 3)
Epoch 1/100
  1/206 [..............................] - ETA: 1:39 - loss: 0.0000e+00 - accuracy: 1.0000
…
20220103	1027	96	0.013800356537103653	0.07059452682733536
20220103	1027	97	0.018145812675356865	0.03366786241531372
20220103	1027	98	0.016531066969037056	0.09508766978979111
20220103	1027	99	0.00034055879223160446	0.06518736481666565
20220103	1027	100	0.006378328427672386	0.02277950569987297
dig-s2
File Exists
dig-s3
a_output_actual/dig-s3
File Exists
Model: "sequential_3"
_________________________________________________________________
Layer (type)                 Output Shape              Param #   
=================================================================
batch_normalization_3 (Batch (None, 32, 20, 3)         12        
_________________________________________________________________
conv2d_9 (Conv2D)            (None, 32, 20, 32)        896       
_________________________________________________________________
max_pooling2d_9 (MaxPooling2 (None, 16, 10, 32)        0         
_________________________________________________________________
conv2d_10 (Conv2D)           (None, 16, 10, 32)        9248      
_________________________________________________________________
max_pooling2d_10 (MaxPooling (None, 8, 5, 32)          0         
_________________________________________________________________
conv2d_11 (Conv2D)           (None, 8, 5, 32)          9248      
_________________________________________________________________
max_pooling2d_11 (MaxPooling (None, 4, 2, 32)          0         
_________________________________________________________________
flatten_3 (Flatten)          (None, 256)               0         
_________________________________________________________________
dense_6 (Dense)              (None, 128)               32896     
_________________________________________________________________
dense_7 (Dense)              (None, 11)                1419      
=================================================================
Total params: 53,719
Trainable params: 53,713
Non-trainable params: 6
_________________________________________________________________
1027
(1027, 32, 20, 3)
(1027, 11)
(821, 32, 20, 3)
(206, 32, 20, 3)
Epoch 1/100
  1/206 [..............................] - ETA: 1:38 - loss: 0.0000e+00 - accuracy: 1.0000
…
