…
in: ziffer_raw/NaN_D8_2020-08-25_08-44-42.jpg  -  out: ziffer_resize/NaN_D8_2020-08-25_08-44-42.jpg
in: ziffer_raw/NaN_6_dig6_20210720-121946.jpg  -  out: ziffer_resize/NaN_6_dig6_20210720-121946.jpg
in: ziffer_raw/NaN_Ziffer_NaN_1255.jpg  -  out: ziffer_resize/NaN_Ziffer_NaN_1255.jpg
in: ziffer_raw/9_9_ROI4_20210501-210646.jpg  -  out: ziffer_resize/9_9_ROI4_20210501-210646.jpg
dig-s0
a_output_actual/dig-s0
File Exists
Model: "sequential"
_________________________________________________________________
 Layer (type)                Output Shape              Param #   
=================================================================
 batch_normalization (BatchN  (None, 32, 20, 3)        12        
 ormalization)                                                   
                                                                 
 conv2d (Conv2D)             (None, 32, 20, 32)        896       
                                                                 
 max_pooling2d (MaxPooling2D  (None, 16, 10, 32)       0         
 )                                                               
                                                                 
 conv2d_1 (Conv2D)           (None, 16, 10, 64)        18496     
                                                                 
 max_pooling2d_1 (MaxPooling  (None, 8, 5, 64)         0         
 2D)                                                             
                                                                 
 conv2d_2 (Conv2D)           (None, 8, 5, 64)          36928     
                                                                 
 max_pooling2d_2 (MaxPooling  (None, 4, 2, 64)         0         
 2D)                                                             
                                                                 
 flatten (Flatten)           (None, 512)               0         
                                                                 
 dense (Dense)               (None, 512)               262656    
                                                                 
 dense_1 (Dense)             (None, 11)                5643      
                                                                 
=================================================================
Total params: 324,631
Trainable params: 324,625
Non-trainable params: 6
_________________________________________________________________
1150
(1150, 32, 20, 3)
(1150, 11)
(920, 32, 20, 3)
(230, 32, 20, 3)
Epoch 1/100
  1/230 [..............................] -
…
=========>.] - ETA: 0s - loss: 3.4949e-05 - accuracy: 1.0000230/230 [==============================] - 2s 10ms/step - loss: 3.4645e-05 - accuracy: 1.0000 - val_loss: 9.8363e-07 - val_accuracy: 1.0000
dig-s0
File Exists
dig-s1
a_output_actual/dig-s1
File Exists
Model: "sequential_1"
_________________________________________________________________
 Layer (type)                Output Shape              Param #   
=================================================================
 batch_normalization_1 (Batc  (None, 32, 20, 3)        12        
 hNormalization)                                                 
                                                                 
 conv2d_3 (Conv2D)           (None, 32, 20, 32)        896       
                                                                 
 max_pooling2d_3 (MaxPooling  (None, 16, 10, 32)       0         
 2D)                                                             
                                                                 
 conv2d_4 (Conv2D)           (None, 16, 10, 64)        18496     
                                                                 
 max_pooling2d_4 (MaxPooling  (None, 8, 5, 64)         0         
 2D)                                                             
                                                                 
 conv2d_5 (Conv2D)           (None, 8, 5, 64)          36928     
                                                                 
 max_pooling2d_5 (MaxPooling  (None, 4, 2, 64)         0         
 2D)                                                             
                                                                 
 flatten_1 (Flatten)         (None, 512)               0         
                                                                 
 dense_2 (Dense)             (None, 256)               131328    
                                                                 
 dense_3 (Dense)             (None, 11)                2827      
                                                                 
=================================================================
Total params: 190,487
Trainable params: 190,481
Non-trainable params: 6
_________________________________________________________________
1150
(1150, 32, 20, 3)
(1150, 11)
(920, 32, 20, 3)
(230, 32, 20, 3)
Epoch 1/100
  1/230 [..............................] -
…
20220416	1150	96	6.514923825307051e-06	0.03116316720843315
20220416	1150	97	1.9421753449933021e-07	0.03089253045618534
20220416	1150	98	1.4161909689391905e-07	3.268689033575356e-05
20220416	1150	99	0.0024664709344506264	3.0112278182059526e-07
20220416	1150	100	1.3987755664857104e-06	0.009973912499845028
dig-s1
File Exists
dig-s2
a_output_actual/dig-s2
File Exists
Model: "sequential_2"
_________________________________________________________________
 Layer (type)                Output Shape              Param #   
=================================================================
 batch_normalization_2 (Batc  (None, 32, 20, 3)        12        
 hNormalization)                                                 
                                                                 
 conv2d_6 (Conv2D)           (None, 32, 20, 32)        896       
                                                                 
 max_pooling2d_6 (MaxPooling  (None, 16, 10, 32)       0         
 2D)                                                             
                                                                 
 conv2d_7 (Conv2D)           (None, 16, 10, 32)        9248      
                                                                 
 max_pooling2d_7 (MaxPooling  (None, 8, 5, 32)         0         
 2D)                                                             
                                                                 
 conv2d_8 (Conv2D)           (None, 8, 5, 32)          9248      
                                                                 
 max_pooling2d_8 (MaxPooling  (None, 4, 2, 32)         0         
 2D)                                                             
                                                                 
 flatten_2 (Flatten)         (None, 256)               0         
                                                                 
 dense_4 (Dense)             (None, 256)               65792     
                                                                 
 dense_5 (Dense)             (None, 11)                2827      
                                                                 
=================================================================
Total params: 88,023
Trainable params: 88,017
Non-trainable params: 6
_________________________________________________________________
1150
(1150, 32, 20, 3)
(1150, 11)
(920, 32, 20, 3)
(230, 32, 20, 3)
Epoch 1/100
  1/230 [..............................] - E
…
20220416	1150	96	0.00013501157809514552	6.169504922581837e-05
20220416	1150	97	0.004841941408813	1.1095711670350283e-05
20220416	1150	98	0.00012034864630550146	0.00010524812387302518
20220416	1150	99	1.1928920002901577e-06	3.430425931583159e-05
20220416	1150	100	0.013416294008493423	0.1364760547876358
dig-s2
File Exists
ziffer_resize/8_20200821-102651_digit3.jpg 8 6
dig-s3
a_output_actual/dig-s3
File Exists
Model: "sequential_3"
_________________________________________________________________
 Layer (type)                Output Shape              Param #   
=================================================================
 batch_normalization_3 (Batc  (None, 32, 20, 3)        12        
 hNormalization)                                                 
                                                                 
 conv2d_9 (Conv2D)           (None, 32, 20, 32)        896       
                                                                 
 max_pooling2d_9 (MaxPooling  (None, 16, 10, 32)       0         
 2D)                                                             
                                                                 
 conv2d_10 (Conv2D)          (None, 16, 10, 32)        9248      
                                                                 
 max_pooling2d_10 (MaxPoolin  (None, 8, 5, 32)         0         
 g2D)                                                            
                                                                 
 conv2d_11 (Conv2D)          (None, 8, 5, 32)          9248      
                                                                 
 max_pooling2d_11 (MaxPoolin  (None, 4, 2, 32)         0         
 g2D)                                                            
                                                                 
 flatten_3 (Flatten)         (None, 256)               0         
                                                                 
 dense_6 (Dense)             (None, 128)               32896     
                                                                 
 dense_7 (Dense)             (None, 11)                1419      
                                                                 
=================================================================
Total params: 53,719
Trainable params: 53,713
Non-trainable params: 6
_________________________________________________________________
1150
(1150, 32, 20, 3)
(1150, 11)
(920, 32, 20, 3)
(230, 32, 20, 3)
Epoch 1/100
  1/230 [..............................] - E
…
