…
in: ziffer_raw/1_3.jpg  -  out: ziffer_resize/1_3.jpg
in: ziffer_raw/1_1_digit3_20210315-230740.jpg  -  out: ziffer_resize/1_1_digit3_20210315-230740.jpg
in: ziffer_raw/8_1_20220211.jpg  -  out: ziffer_resize/8_1_20220211.jpg
in: ziffer_raw/2_2_ROI2_20210605-132714a.jpg  -  out: ziffer_resize/2_2_ROI2_20210605-132714a.jpg
dig-s0
a_output_actual/dig-s0
File Exists
Model: "sequential"
_________________________________________________________________
 Layer (type)                Output Shape              Param #   
=================================================================
 batch_normalization (BatchN  (None, 32, 20, 3)        12        
 ormalization)                                                   
                                                                 
 conv2d (Conv2D)             (None, 32, 20, 32)        896       
                                                                 
 max_pooling2d (MaxPooling2D  (None, 16, 10, 32)       0         
 )                                                               
                                                                 
 conv2d_1 (Conv2D)           (None, 16, 10, 64)        18496     
                                                                 
 max_pooling2d_1 (MaxPooling  (None, 8, 5, 64)         0         
 2D)                                                             
                                                                 
 conv2d_2 (Conv2D)           (None, 8, 5, 64)          36928     
                                                                 
 max_pooling2d_2 (MaxPooling  (None, 4, 2, 64)         0         
 2D)                                                             
                                                                 
 flatten (Flatten)           (None, 512)               0         
                                                                 
 dense (Dense)               (None, 512)               262656    
                                                                 
 dense_1 (Dense)             (None, 11)                5643      
                                                                 
=================================================================
Total params: 324,631
Trainable params: 324,625
Non-trainable params: 6
_________________________________________________________________
1125
(1125, 32, 20, 3)
(1125, 11)
(900, 32, 20, 3)
(225, 32, 20, 3)
Epoch 1/100
  1/225 [..............................] -
…
==============>.] - ETA: 0s - loss: 3.7135e-06 - accuracy: 1.0000225/225 [==============================] - 2s 8ms/step - loss: 3.6805e-06 - accuracy: 1.0000 - val_loss: 0.0164 - val_accuracy: 0.9956
dig-s0
File Exists
dig-s1
a_output_actual/dig-s1
File Exists
Model: "sequential_1"
_________________________________________________________________
 Layer (type)                Output Shape              Param #   
=================================================================
 batch_normalization_1 (Batc  (None, 32, 20, 3)        12        
 hNormalization)                                                 
                                                                 
 conv2d_3 (Conv2D)           (None, 32, 20, 32)        896       
                                                                 
 max_pooling2d_3 (MaxPooling  (None, 16, 10, 32)       0         
 2D)                                                             
                                                                 
 conv2d_4 (Conv2D)           (None, 16, 10, 64)        18496     
                                                                 
 max_pooling2d_4 (MaxPooling  (None, 8, 5, 64)         0         
 2D)                                                             
                                                                 
 conv2d_5 (Conv2D)           (None, 8, 5, 64)          36928     
                                                                 
 max_pooling2d_5 (MaxPooling  (None, 4, 2, 64)         0         
 2D)                                                             
                                                                 
 flatten_1 (Flatten)         (None, 512)               0         
                                                                 
 dense_2 (Dense)             (None, 256)               131328    
                                                                 
 dense_3 (Dense)             (None, 11)                2827      
                                                                 
=================================================================
Total params: 190,487
Trainable params: 190,481
Non-trainable params: 6
_________________________________________________________________
1125
(1125, 32, 20, 3)
(1125, 11)
(900, 32, 20, 3)
(225, 32, 20, 3)
Epoch 1/100
  1/225 [..............................] -
…
20220213	1125	97	0.0019129589200019836	0.008938100188970566
20220213	1125	98	3.794500287312985e-07	5.223781727181631e-07
20220213	1125	99	0.0003354855580255389	0.016242101788520813
20220213	1125	100	7.685337914153934e-05	1.6212187858855032e-07
dig-s1
File Exists
ziffer_resize/NaN_0_ht6_20210628-182853.jpg -1 9
dig-s2
a_output_actual/dig-s2
File Exists
Model: "sequential_2"
_________________________________________________________________
 Layer (type)                Output Shape              Param #   
=================================================================
 batch_normalization_2 (Batc  (None, 32, 20, 3)        12        
 hNormalization)                                                 
                                                                 
 conv2d_6 (Conv2D)           (None, 32, 20, 32)        896       
                                                                 
 max_pooling2d_6 (MaxPooling  (None, 16, 10, 32)       0         
 2D)                                                             
                                                                 
 conv2d_7 (Conv2D)           (None, 16, 10, 32)        9248      
                                                                 
 max_pooling2d_7 (MaxPooling  (None, 8, 5, 32)         0         
 2D)                                                             
                                                                 
 conv2d_8 (Conv2D)           (None, 8, 5, 32)          9248      
                                                                 
 max_pooling2d_8 (MaxPooling  (None, 4, 2, 32)         0         
 2D)                                                             
                                                                 
 flatten_2 (Flatten)         (None, 256)               0         
                                                                 
 dense_4 (Dense)             (None, 256)               65792     
                                                                 
 dense_5 (Dense)             (None, 11)                2827      
                                                                 
=================================================================
Total params: 88,023
Trainable params: 88,017
Non-trainable params: 6
_________________________________________________________________
1125
(1125, 32, 20, 3)
(1125, 11)
(900, 32, 20, 3)
(225, 32, 20, 3)
Epoch 1/100
  1/225 [..............................] - E
…
20220213	1125	97	0.045895084738731384	3.1507681796938414e-06
20220213	1125	98	0.012358260340988636	2.839780961494398e-07
20220213	1125	99	0.0007405914948321879	0.00044783565681427717
20220213	1125	100	0.02112758159637451	0.038770388811826706
dig-s2
File Exists
ziffer_resize/7_10_ht6_20210703-133250.jpg 7 -1
dig-s3
a_output_actual/dig-s3
File Exists
Model: "sequential_3"
_________________________________________________________________
 Layer (type)                Output Shape              Param #   
=================================================================
 batch_normalization_3 (Batc  (None, 32, 20, 3)        12        
 hNormalization)                                                 
                                                                 
 conv2d_9 (Conv2D)           (None, 32, 20, 32)        896       
                                                                 
 max_pooling2d_9 (MaxPooling  (None, 16, 10, 32)       0         
 2D)                                                             
                                                                 
 conv2d_10 (Conv2D)          (None, 16, 10, 32)        9248      
                                                                 
 max_pooling2d_10 (MaxPoolin  (None, 8, 5, 32)         0         
 g2D)                                                            
                                                                 
 conv2d_11 (Conv2D)          (None, 8, 5, 32)          9248      
                                                                 
 max_pooling2d_11 (MaxPoolin  (None, 4, 2, 32)         0         
 g2D)                                                            
                                                                 
 flatten_3 (Flatten)         (None, 256)               0         
                                                                 
 dense_6 (Dense)             (None, 128)               32896     
                                                                 
 dense_7 (Dense)             (None, 11)                1419      
                                                                 
=================================================================
Total params: 53,719
Trainable params: 53,713
Non-trainable params: 6
_________________________________________________________________
1125
(1125, 32, 20, 3)
(1125, 11)
(900, 32, 20, 3)
(225, 32, 20, 3)
Epoch 1/100
  1/225 [..............................] - E
…
