…
in: ziffer_raw/4_0_ht6_20210627-222846.jpg  -  out: ziffer_resize/4_0_ht6_20210627-222846.jpg
in: ziffer_raw/2_digit7_350907.jpg  -  out: ziffer_resize/2_digit7_350907.jpg
in: ziffer_raw/8_3_digit6_20210629-124201.jpg  -  out: ziffer_resize/8_3_digit6_20210629-124201.jpg
in: ziffer_raw/NaN_D8_2020-08-22_02-50-08.jpg  -  out: ziffer_resize/NaN_D8_2020-08-22_02-50-08.jpg
dig-s0
a_output_actual/dig-s0
File Exists
Model: "sequential"
_________________________________________________________________
 Layer (type)                Output Shape              Param #   
=================================================================
 batch_normalization (BatchN  (None, 32, 20, 3)        12        
 ormalization)                                                   
                                                                 
 conv2d (Conv2D)             (None, 32, 20, 32)        896       
                                                                 
 max_pooling2d (MaxPooling2D  (None, 16, 10, 32)       0         
 )                                                               
                                                                 
 conv2d_1 (Conv2D)           (None, 16, 10, 64)        18496     
                                                                 
 max_pooling2d_1 (MaxPooling  (None, 8, 5, 64)         0         
 2D)                                                             
                                                                 
 conv2d_2 (Conv2D)           (None, 8, 5, 64)          36928     
                                                                 
 max_pooling2d_2 (MaxPooling  (None, 4, 2, 64)         0         
 2D)                                                             
                                                                 
 flatten (Flatten)           (None, 512)               0         
                                                                 
 dense (Dense)               (None, 512)               262656    
                                                                 
 dense_1 (Dense)             (None, 11)                5643      
                                                                 
=================================================================
Total params: 324,631
Trainable params: 324,625
Non-trainable params: 6
_________________________________________________________________
1214
(1214, 32, 20, 3)
(1214, 11)
(971, 32, 20, 3)
(243, 32, 20, 3)
Epoch 1/100
  1/243 [..............................] -
…
==============>.] - ETA: 0s - loss: 5.2813e-06 - accuracy: 1.0000243/243 [==============================] - 2s 9ms/step - loss: 5.1943e-06 - accuracy: 1.0000 - val_loss: 0.0013 - val_accuracy: 1.0000
dig-s0
File Exists
dig-s1
a_output_actual/dig-s1
File Exists
Model: "sequential_1"
_________________________________________________________________
 Layer (type)                Output Shape              Param #   
=================================================================
 batch_normalization_1 (Batc  (None, 32, 20, 3)        12        
 hNormalization)                                                 
                                                                 
 conv2d_3 (Conv2D)           (None, 32, 20, 32)        896       
                                                                 
 max_pooling2d_3 (MaxPooling  (None, 16, 10, 32)       0         
 2D)                                                             
                                                                 
 conv2d_4 (Conv2D)           (None, 16, 10, 64)        18496     
                                                                 
 max_pooling2d_4 (MaxPooling  (None, 8, 5, 64)         0         
 2D)                                                             
                                                                 
 conv2d_5 (Conv2D)           (None, 8, 5, 64)          36928     
                                                                 
 max_pooling2d_5 (MaxPooling  (None, 4, 2, 64)         0         
 2D)                                                             
                                                                 
 flatten_1 (Flatten)         (None, 512)               0         
                                                                 
 dense_2 (Dense)             (None, 256)               131328    
                                                                 
 dense_3 (Dense)             (None, 11)                2827      
                                                                 
=================================================================
Total params: 190,487
Trainable params: 190,481
Non-trainable params: 6
_________________________________________________________________
1214
(1214, 32, 20, 3)
(1214, 11)
(971, 32, 20, 3)
(243, 32, 20, 3)
Epoch 1/100
  1/243 [..............................] -
…
20220310	1214	97	0.04364180937409401	0.21948044002056122
20220310	1214	98	0.020070115104317665	0.06311816722154617
20220310	1214	99	0.001148563576862216	0.05782488361001015
20220310	1214	100	0.003975869156420231	0.0016906611854210496
dig-s1
File Exists
ziffer_resize/0-1_5_20211231-062402.jpg 0 7
ziffer_resize/6_dig5_20220106-020809.jpg 6 0
dig-s2
a_output_actual/dig-s2
File Exists
Model: "sequential_2"
_________________________________________________________________
 Layer (type)                Output Shape              Param #   
=================================================================
 batch_normalization_2 (Batc  (None, 32, 20, 3)        12        
 hNormalization)                                                 
                                                                 
 conv2d_6 (Conv2D)           (None, 32, 20, 32)        896       
                                                                 
 max_pooling2d_6 (MaxPooling  (None, 16, 10, 32)       0         
 2D)                                                             
                                                                 
 conv2d_7 (Conv2D)           (None, 16, 10, 32)        9248      
                                                                 
 max_pooling2d_7 (MaxPooling  (None, 8, 5, 32)         0         
 2D)                                                             
                                                                 
 conv2d_8 (Conv2D)           (None, 8, 5, 32)          9248      
                                                                 
 max_pooling2d_8 (MaxPooling  (None, 4, 2, 32)         0         
 2D)                                                             
                                                                 
 flatten_2 (Flatten)         (None, 256)               0         
                                                                 
 dense_4 (Dense)             (None, 256)               65792     
                                                                 
 dense_5 (Dense)             (None, 11)                2827      
                                                                 
=================================================================
Total params: 88,023
Trainable params: 88,017
Non-trainable params: 6
_________________________________________________________________
1214
(1214, 32, 20, 3)
(1214, 11)
(971, 32, 20, 3)
(243, 32, 20, 3)
Epoch 1/100
  1/243 [..............................] - E
…
20220310	1214	100	0.019726010039448738	0.14680765569210052
dig-s2
File Exists
ziffer_resize/0_0_nt1_20210626-090405.jpg 0 -1
ziffer_resize/2_2_ht6_20210626-090405.jpg 2 7
ziffer_resize/6_Ziffer_6_0065.jpg 6 8
ziffer_resize/6_dig5_20220106-020809.jpg 6 0
ziffer_resize/6_dig6_20220106-071435.jpg 6 0
ziffer_resize/9_litre3_20220310002445.jpg 9 4
dig-s3
a_output_actual/dig-s3
File Exists
Model: "sequential_3"
_________________________________________________________________
 Layer (type)                Output Shape              Param #   
=================================================================
 batch_normalization_3 (Batc  (None, 32, 20, 3)        12        
 hNormalization)                                                 
                                                                 
 conv2d_9 (Conv2D)           (None, 32, 20, 32)        896       
                                                                 
 max_pooling2d_9 (MaxPooling  (None, 16, 10, 32)       0         
 2D)                                                             
                                                                 
 conv2d_10 (Conv2D)          (None, 16, 10, 32)        9248      
                                                                 
 max_pooling2d_10 (MaxPoolin  (None, 8, 5, 32)         0         
 g2D)                                                            
                                                                 
 conv2d_11 (Conv2D)          (None, 8, 5, 32)          9248      
                                                                 
 max_pooling2d_11 (MaxPoolin  (None, 4, 2, 32)         0         
 g2D)                                                            
                                                                 
 flatten_3 (Flatten)         (None, 256)               0         
                                                                 
 dense_6 (Dense)             (None, 128)               32896     
                                                                 
 dense_7 (Dense)             (None, 11)                1419      
                                                                 
=================================================================
Total params: 53,719
Trainable params: 53,713
Non-trainable params: 6
_________________________________________________________________
1214
(1214, 32, 20, 3)
(1214, 11)
(971, 32, 20, 3)
(243, 32, 20, 3)
Epoch 1/100
  1/243 [..............................] - E
…
