…
in: ziffer_raw/NaN_ziffer5_2020-05-04_14-50-06.jpg  -  out: ziffer_resize/NaN_ziffer5_2020-05-04_14-50-06.jpg
in: ziffer_raw/NaN_6_dig6_20210723-044733.jpg  -  out: ziffer_resize/NaN_6_dig6_20210723-044733.jpg
in: ziffer_raw/1_D5_2020-08-16_02-14-25.jpg  -  out: ziffer_resize/1_D5_2020-08-16_02-14-25.jpg
in: ziffer_raw/NaN_ziffer1_2020-04-16_12-50-06.jpg  -  out: ziffer_resize/NaN_ziffer1_2020-04-16_12-50-06.jpg
dig-s0
a_output_actual/dig-s0
File Exists
Model: "sequential"
_________________________________________________________________
Layer (type)                 Output Shape              Param #   
=================================================================
batch_normalization (BatchNo (None, 32, 20, 3)         12        
_________________________________________________________________
conv2d (Conv2D)              (None, 32, 20, 32)        896       
_________________________________________________________________
max_pooling2d (MaxPooling2D) (None, 16, 10, 32)        0         
_________________________________________________________________
conv2d_1 (Conv2D)            (None, 16, 10, 64)        18496     
_________________________________________________________________
max_pooling2d_1 (MaxPooling2 (None, 8, 5, 64)          0         
_________________________________________________________________
conv2d_2 (Conv2D)            (None, 8, 5, 64)          36928     
_________________________________________________________________
max_pooling2d_2 (MaxPooling2 (None, 4, 2, 64)          0         
_________________________________________________________________
flatten (Flatten)            (None, 512)               0         
_________________________________________________________________
dense (Dense)                (None, 512)               262656    
_________________________________________________________________
dense_1 (Dense)              (None, 11)                5643      
=================================================================
Total params: 324,631
Trainable params: 324,625
Non-trainable params: 6
_________________________________________________________________
1077
(1077, 32, 20, 3)
(1077, 11)
(861, 32, 20, 3)
(216, 32, 20, 3)
Epoch 1/100
  1/216 [..............................] - ETA: 1:49 - loss: 0.0000e+00 - accuracy: 1.0000
…
216/216 [==============================] - 1s 6ms/step - loss: 0.0295 - accuracy: 0.9965 - val_loss: 0.0647 - val_accuracy: 0.9861
dig-s0
File Exists
ziffer_resize/1_dig6_20220106-171136.jpg 1 7
ziffer_resize/3.0_lcd.jpg 3 -1
ziffer_resize/NaN_ziffer5_2020-04-16_11-40-06.jpg -1 5
dig-s1
a_output_actual/dig-s1
File Exists
Model: "sequential_1"
_________________________________________________________________
Layer (type)                 Output Shape              Param #   
=================================================================
batch_normalization_1 (Batch (None, 32, 20, 3)         12        
_________________________________________________________________
conv2d_3 (Conv2D)            (None, 32, 20, 32)        896       
_________________________________________________________________
max_pooling2d_3 (MaxPooling2 (None, 16, 10, 32)        0         
_________________________________________________________________
conv2d_4 (Conv2D)            (None, 16, 10, 64)        18496     
_________________________________________________________________
max_pooling2d_4 (MaxPooling2 (None, 8, 5, 64)          0         
_________________________________________________________________
conv2d_5 (Conv2D)            (None, 8, 5, 64)          36928     
_________________________________________________________________
max_pooling2d_5 (MaxPooling2 (None, 4, 2, 64)          0         
_________________________________________________________________
flatten_1 (Flatten)          (None, 512)               0         
_________________________________________________________________
dense_2 (Dense)              (None, 256)               131328    
_________________________________________________________________
dense_3 (Dense)              (None, 11)                2827      
=================================================================
Total params: 190,487
Trainable params: 190,481
Non-trainable params: 6
_________________________________________________________________
1077
(1077, 32, 20, 3)
(1077, 11)
(861, 32, 20, 3)
(216, 32, 20, 3)
Epoch 1/100
  1/216 [..............................] - ETA: 1:17 - loss: 1.2219e-06 - accuracy: 1.0000
…
20220110	1077	100	0.005544451531022787	0.12826919555664062
dig-s1
File Exists
ziffer_resize/0_0_nt1_20210626-090405.jpg 0 -1
ziffer_resize/6_dig6_20220106-071435.jpg 6 0
ziffer_resize/7_dig6_20220106-150530.jpg 7 1
ziffer_resize/7_dig6_20220106-151512.jpg 7 1
ziffer_resize/7_dig6_20220106-182911.jpg 7 1
ziffer_resize/8_dig5_20220106-053708.jpg 8 3
dig-s2
a_output_actual/dig-s2
File Exists
Model: "sequential_2"
_________________________________________________________________
Layer (type)                 Output Shape              Param #   
=================================================================
batch_normalization_2 (Batch (None, 32, 20, 3)         12        
_________________________________________________________________
conv2d_6 (Conv2D)            (None, 32, 20, 32)        896       
_________________________________________________________________
max_pooling2d_6 (MaxPooling2 (None, 16, 10, 32)        0         
_________________________________________________________________
conv2d_7 (Conv2D)            (None, 16, 10, 32)        9248      
_________________________________________________________________
max_pooling2d_7 (MaxPooling2 (None, 8, 5, 32)          0         
_________________________________________________________________
conv2d_8 (Conv2D)            (None, 8, 5, 32)          9248      
_________________________________________________________________
max_pooling2d_8 (MaxPooling2 (None, 4, 2, 32)          0         
_________________________________________________________________
flatten_2 (Flatten)          (None, 256)               0         
_________________________________________________________________
dense_4 (Dense)              (None, 256)               65792     
_________________________________________________________________
dense_5 (Dense)              (None, 11)                2827      
=================================================================
Total params: 88,023
Trainable params: 88,017
Non-trainable params: 6
_________________________________________________________________
1077
(1077, 32, 20, 3)
(1077, 11)
(861, 32, 20, 3)
(216, 32, 20, 3)
Epoch 1/100
  1/216 [..............................] - ETA: 1:16 - loss: 0.0000e+00 - accuracy: 1.0000
…
20220110	1077	98	0.04002313315868378	0.23082731664180756
20220110	1077	99	0.02309390902519226	0.13583987951278687
20220110	1077	100	0.016300590708851814	0.1346501111984253
dig-s2
File Exists
ziffer_resize/0_dig6_20220106-181929.jpg 0 6
ziffer_resize/1_dig6_20220106-171136.jpg 1 7
ziffer_resize/8_dig5_20220106-053708.jpg 8 3
dig-s3
a_output_actual/dig-s3
File Exists
Model: "sequential_3"
_________________________________________________________________
Layer (type)                 Output Shape              Param #   
=================================================================
batch_normalization_3 (Batch (None, 32, 20, 3)         12        
_________________________________________________________________
conv2d_9 (Conv2D)            (None, 32, 20, 32)        896       
_________________________________________________________________
max_pooling2d_9 (MaxPooling2 (None, 16, 10, 32)        0         
_________________________________________________________________
conv2d_10 (Conv2D)           (None, 16, 10, 32)        9248      
_________________________________________________________________
max_pooling2d_10 (MaxPooling (None, 8, 5, 32)          0         
_________________________________________________________________
conv2d_11 (Conv2D)           (None, 8, 5, 32)          9248      
_________________________________________________________________
max_pooling2d_11 (MaxPooling (None, 4, 2, 32)          0         
_________________________________________________________________
flatten_3 (Flatten)          (None, 256)               0         
_________________________________________________________________
dense_6 (Dense)              (None, 128)               32896     
_________________________________________________________________
dense_7 (Dense)              (None, 11)                1419      
=================================================================
Total params: 53,719
Trainable params: 53,713
Non-trainable params: 6
_________________________________________________________________
1077
(1077, 32, 20, 3)
(1077, 11)
(861, 32, 20, 3)
(216, 32, 20, 3)
Epoch 1/100
  1/216 [..............................] - ETA: 1:17 - loss: 0.0000e+00 - accuracy: 1.0000
…
