…
in: ziffer_raw/7_digit7_073420.jpg  -  out: ziffer_resize/7_digit7_073420.jpg
in: ziffer_raw/NaN_digit7_081710.jpg  -  out: ziffer_resize/NaN_digit7_081710.jpg
in: ziffer_raw/6_2_20220211.jpg  -  out: ziffer_resize/6_2_20220211.jpg
in: ziffer_raw/1_3.jpg  -  out: ziffer_resize/1_3.jpg
in: ziffer_raw/1_1_digit3_20210315-230740.jpg  -  out: ziffer_resize/1_1_digit3_20210315-230740.jpg
dig-s0
a_output_actual/dig-s0
File Exists
Model: "sequential"
_________________________________________________________________
 Layer (type)                Output Shape              Param #   
=================================================================
 batch_normalization (BatchN  (None, 32, 20, 3)        12        
 ormalization)                                                   
                                                                 
 conv2d (Conv2D)             (None, 32, 20, 32)        896       
                                                                 
 max_pooling2d (MaxPooling2D  (None, 16, 10, 32)       0         
 )                                                               
                                                                 
 conv2d_1 (Conv2D)           (None, 16, 10, 64)        18496     
                                                                 
 max_pooling2d_1 (MaxPooling  (None, 8, 5, 64)         0         
 2D)                                                             
                                                                 
 conv2d_2 (Conv2D)           (None, 8, 5, 64)          36928     
                                                                 
 max_pooling2d_2 (MaxPooling  (None, 4, 2, 64)         0         
 2D)                                                             
                                                                 
 flatten (Flatten)           (None, 512)               0         
                                                                 
 dense (Dense)               (None, 512)               262656    
                                                                 
 dense_1 (Dense)             (None, 11)                5643      
                                                                 
=================================================================
Total params: 324,631
Trainable params: 324,625
Non-trainable params: 6
_________________________________________________________________
1128
(1128, 32, 20, 3)
(1128, 11)
(902, 32, 20, 3)
(226, 32, 20, 3)
Epoch 1/100
  1/226 [..............................] -
…
uracy: 0.9989226/226 [==============================] - 3s 12ms/step - loss: 0.0060 - accuracy: 0.9989 - val_loss: 1.0222e-06 - val_accuracy: 1.0000
dig-s0
File Exists
ziffer_resize/NaN_ziffer5_2020-04-16_11-40-06.jpg -1 5
dig-s1
a_output_actual/dig-s1
File Exists
Model: "sequential_1"
_________________________________________________________________
 Layer (type)                Output Shape              Param #   
=================================================================
 batch_normalization_1 (Batc  (None, 32, 20, 3)        12        
 hNormalization)                                                 
                                                                 
 conv2d_3 (Conv2D)           (None, 32, 20, 32)        896       
                                                                 
 max_pooling2d_3 (MaxPooling  (None, 16, 10, 32)       0         
 2D)                                                             
                                                                 
 conv2d_4 (Conv2D)           (None, 16, 10, 64)        18496     
                                                                 
 max_pooling2d_4 (MaxPooling  (None, 8, 5, 64)         0         
 2D)                                                             
                                                                 
 conv2d_5 (Conv2D)           (None, 8, 5, 64)          36928     
                                                                 
 max_pooling2d_5 (MaxPooling  (None, 4, 2, 64)         0         
 2D)                                                             
                                                                 
 flatten_1 (Flatten)         (None, 512)               0         
                                                                 
 dense_2 (Dense)             (None, 256)               131328    
                                                                 
 dense_3 (Dense)             (None, 11)                2827      
                                                                 
=================================================================
Total params: 190,487
Trainable params: 190,481
Non-trainable params: 6
_________________________________________________________________
1128
(1128, 32, 20, 3)
(1128, 11)
(902, 32, 20, 3)
(226, 32, 20, 3)
Epoch 1/100
  1/226 [..............................] -
…
20220223	1128	97	0.0019988049753010273	3.588839535950683e-05
20220223	1128	98	1.4378431842487771e-05	0.004734794609248638
20220223	1128	99	1.6784415635129335e-08	0.000234533246839419
20220223	1128	100	2.0735379280267807e-07	3.4231825907227176e-07
dig-s1
File Exists
ziffer_resize/6_dig6_20220106-071435.jpg 6 0
ziffer_resize/NaN_0_ht6_20210628-182853.jpg -1 9
dig-s2
a_output_actual/dig-s2
File Exists
Model: "sequential_2"
_________________________________________________________________
 Layer (type)                Output Shape              Param #   
=================================================================
 batch_normalization_2 (Batc  (None, 32, 20, 3)        12        
 hNormalization)                                                 
                                                                 
 conv2d_6 (Conv2D)           (None, 32, 20, 32)        896       
                                                                 
 max_pooling2d_6 (MaxPooling  (None, 16, 10, 32)       0         
 2D)                                                             
                                                                 
 conv2d_7 (Conv2D)           (None, 16, 10, 32)        9248      
                                                                 
 max_pooling2d_7 (MaxPooling  (None, 8, 5, 32)         0         
 2D)                                                             
                                                                 
 conv2d_8 (Conv2D)           (None, 8, 5, 32)          9248      
                                                                 
 max_pooling2d_8 (MaxPooling  (None, 4, 2, 32)         0         
 2D)                                                             
                                                                 
 flatten_2 (Flatten)         (None, 256)               0         
                                                                 
 dense_4 (Dense)             (None, 256)               65792     
                                                                 
 dense_5 (Dense)             (None, 11)                2827      
                                                                 
=================================================================
Total params: 88,023
Trainable params: 88,017
Non-trainable params: 6
_________________________________________________________________
1128
(1128, 32, 20, 3)
(1128, 11)
(902, 32, 20, 3)
(226, 32, 20, 3)
Epoch 1/100
  1/226 [..............................] - E
…
20220223	1128	97	7.283558147719305e-07	0.10907698422670364
20220223	1128	98	0.0023058713413774967	0.06339871138334274
20220223	1128	99	0.02101253904402256	0.00018262880621477962
20220223	1128	100	0.0018729334697127342	0.029030373319983482
dig-s2
File Exists
ziffer_resize/NaN_ziffer5_2020-04-16_11-40-06.jpg -1 5
dig-s3
a_output_actual/dig-s3
File Exists
Model: "sequential_3"
_________________________________________________________________
 Layer (type)                Output Shape              Param #   
=================================================================
 batch_normalization_3 (Batc  (None, 32, 20, 3)        12        
 hNormalization)                                                 
                                                                 
 conv2d_9 (Conv2D)           (None, 32, 20, 32)        896       
                                                                 
 max_pooling2d_9 (MaxPooling  (None, 16, 10, 32)       0         
 2D)                                                             
                                                                 
 conv2d_10 (Conv2D)          (None, 16, 10, 32)        9248      
                                                                 
 max_pooling2d_10 (MaxPoolin  (None, 8, 5, 32)         0         
 g2D)                                                            
                                                                 
 conv2d_11 (Conv2D)          (None, 8, 5, 32)          9248      
                                                                 
 max_pooling2d_11 (MaxPoolin  (None, 4, 2, 32)         0         
 g2D)                                                            
                                                                 
 flatten_3 (Flatten)         (None, 256)               0         
                                                                 
 dense_6 (Dense)             (None, 128)               32896     
                                                                 
 dense_7 (Dense)             (None, 11)                1419      
                                                                 
=================================================================
Total params: 53,719
Trainable params: 53,713
Non-trainable params: 6
_________________________________________________________________
1128
(1128, 32, 20, 3)
(1128, 11)
(902, 32, 20, 3)
(226, 32, 20, 3)
Epoch 1/100
  1/226 [..............................] - E
…
