…
in: ziffer_raw/NaN_D8_2020-08-22_03-49-58.jpg  -  out: ziffer_resize/NaN_D8_2020-08-22_03-49-58.jpg
in: ziffer_raw/0_0_nt1_20210625-212553.jpg  -  out: ziffer_resize/0_0_nt1_20210625-212553.jpg
in: ziffer_raw/NaN_20200911-174027_ROI5.jpg  -  out: ziffer_resize/NaN_20200911-174027_ROI5.jpg
in: ziffer_raw/NaN_D8_2020-08-24_16-45-06.jpg  -  out: ziffer_resize/NaN_D8_2020-08-24_16-45-06.jpg
dig-s0
a_output_actual/dig-s0
File Exists
Model: "sequential"
_________________________________________________________________
 Layer (type)                Output Shape              Param #   
=================================================================
 batch_normalization (BatchN  (None, 32, 20, 3)        12        
 ormalization)                                                   
                                                                 
 conv2d (Conv2D)             (None, 32, 20, 32)        896       
                                                                 
 max_pooling2d (MaxPooling2D  (None, 16, 10, 32)       0         
 )                                                               
                                                                 
 conv2d_1 (Conv2D)           (None, 16, 10, 64)        18496     
                                                                 
 max_pooling2d_1 (MaxPooling  (None, 8, 5, 64)         0         
 2D)                                                             
                                                                 
 conv2d_2 (Conv2D)           (None, 8, 5, 64)          36928     
                                                                 
 max_pooling2d_2 (MaxPooling  (None, 4, 2, 64)         0         
 2D)                                                             
                                                                 
 flatten (Flatten)           (None, 512)               0         
                                                                 
 dense (Dense)               (None, 512)               262656    
                                                                 
 dense_1 (Dense)             (None, 11)                5643      
                                                                 
=================================================================
Total params: 324,631
Trainable params: 324,625
Non-trainable params: 6
_________________________________________________________________
1186
(1186, 32, 20, 3)
(1186, 11)
(948, 32, 20, 3)
(238, 32, 20, 3)
Epoch 1/100
  1/237 [..............................] -
…
==========] - 2s 8ms/step - loss: 1.1124e-05 - accuracy: 1.0000 - val_loss: 0.2081 - val_accuracy: 0.9832
dig-s0
File Exists
ziffer_resize/0_litre3_20220312-060001.jpg 0 8
ziffer_resize/1_arbitrary_20220227.jpg 1 6
ziffer_resize/6_dig6_20220106-181929.jpg 6 0
ziffer_resize/9_D8_2020-08-20_11-32-19.jpg 9 -1
dig-s1
a_output_actual/dig-s1
File Exists
Model: "sequential_1"
_________________________________________________________________
 Layer (type)                Output Shape              Param #   
=================================================================
 batch_normalization_1 (Batc  (None, 32, 20, 3)        12        
 hNormalization)                                                 
                                                                 
 conv2d_3 (Conv2D)           (None, 32, 20, 32)        896       
                                                                 
 max_pooling2d_3 (MaxPooling  (None, 16, 10, 32)       0         
 2D)                                                             
                                                                 
 conv2d_4 (Conv2D)           (None, 16, 10, 64)        18496     
                                                                 
 max_pooling2d_4 (MaxPooling  (None, 8, 5, 64)         0         
 2D)                                                             
                                                                 
 conv2d_5 (Conv2D)           (None, 8, 5, 64)          36928     
                                                                 
 max_pooling2d_5 (MaxPooling  (None, 4, 2, 64)         0         
 2D)                                                             
                                                                 
 flatten_1 (Flatten)         (None, 512)               0         
                                                                 
 dense_2 (Dense)             (None, 256)               131328    
                                                                 
 dense_3 (Dense)             (None, 11)                2827      
                                                                 
=================================================================
Total params: 190,487
Trainable params: 190,481
Non-trainable params: 6
_________________________________________________________________
1186
(1186, 32, 20, 3)
(1186, 11)
(948, 32, 20, 3)
(238, 32, 20, 3)
Epoch 1/100
  1/237 [..............................] -
…
20220424	1186	96	0.0002312551805516705	0.0911330059170723
20220424	1186	97	0.02417517639696598	0.10859456658363342
20220424	1186	98	0.0011333090951666236	0.1070479154586792
20220424	1186	99	9.857232362264767e-05	0.04687555134296417
20220424	1186	100	4.799045927939005e-05	0.08830903470516205
dig-s1
File Exists
ziffer_resize/6_dig6_20220106-181929.jpg 6 0
dig-s2
a_output_actual/dig-s2
File Exists
Model: "sequential_2"
_________________________________________________________________
 Layer (type)                Output Shape              Param #   
=================================================================
 batch_normalization_2 (Batc  (None, 32, 20, 3)        12        
 hNormalization)                                                 
                                                                 
 conv2d_6 (Conv2D)           (None, 32, 20, 32)        896       
                                                                 
 max_pooling2d_6 (MaxPooling  (None, 16, 10, 32)       0         
 2D)                                                             
                                                                 
 conv2d_7 (Conv2D)           (None, 16, 10, 32)        9248      
                                                                 
 max_pooling2d_7 (MaxPooling  (None, 8, 5, 32)         0         
 2D)                                                             
                                                                 
 conv2d_8 (Conv2D)           (None, 8, 5, 32)          9248      
                                                                 
 max_pooling2d_8 (MaxPooling  (None, 4, 2, 32)         0         
 2D)                                                             
                                                                 
 flatten_2 (Flatten)         (None, 256)               0         
                                                                 
 dense_4 (Dense)             (None, 256)               65792     
                                                                 
 dense_5 (Dense)             (None, 11)                2827      
                                                                 
=================================================================
Total params: 88,023
Trainable params: 88,017
Non-trainable params: 6
_________________________________________________________________
1186
(1186, 32, 20, 3)
(1186, 11)
(948, 32, 20, 3)
(238, 32, 20, 3)
Epoch 1/100
  1/237 [..............................] - E
…
20220424	1186	96	5.085054453957127e-06	0.1283804327249527
20220424	1186	97	0.0028176410123705864	0.07517936080694199
20220424	1186	98	0.0001980099914362654	0.028896665200591087
20220424	1186	99	0.014296669512987137	0.026394646614789963
20220424	1186	100	0.028820374980568886	0.020383764058351517
dig-s2
File Exists
ziffer_resize/9_litre2_20220312-060001.jpg 9 8
dig-s3
a_output_actual/dig-s3
File Exists
Model: "sequential_3"
_________________________________________________________________
 Layer (type)                Output Shape              Param #   
=================================================================
 batch_normalization_3 (Batc  (None, 32, 20, 3)        12        
 hNormalization)                                                 
                                                                 
 conv2d_9 (Conv2D)           (None, 32, 20, 32)        896       
                                                                 
 max_pooling2d_9 (MaxPooling  (None, 16, 10, 32)       0         
 2D)                                                             
                                                                 
 conv2d_10 (Conv2D)          (None, 16, 10, 32)        9248      
                                                                 
 max_pooling2d_10 (MaxPoolin  (None, 8, 5, 32)         0         
 g2D)                                                            
                                                                 
 conv2d_11 (Conv2D)          (None, 8, 5, 32)          9248      
                                                                 
 max_pooling2d_11 (MaxPoolin  (None, 4, 2, 32)         0         
 g2D)                                                            
                                                                 
 flatten_3 (Flatten)         (None, 256)               0         
                                                                 
 dense_6 (Dense)             (None, 128)               32896     
                                                                 
 dense_7 (Dense)             (None, 11)                1419      
                                                                 
=================================================================
Total params: 53,719
Trainable params: 53,713
Non-trainable params: 6
_________________________________________________________________
1186
(1186, 32, 20, 3)
(1186, 11)
(948, 32, 20, 3)
(238, 32, 20, 3)
Epoch 1/100
  1/237 [..............................] - E
…
