…
in: ziffer_raw/NaN_Ziffer_NaN_1269.jpg  -  out: ziffer_resize/NaN_Ziffer_NaN_1269.jpg
in: ziffer_raw/5_5b.jpg  -  out: ziffer_resize/5_5b.jpg
in: ziffer_raw/NaN_ziffer5_2020-04-17_06-00-06.jpg  -  out: ziffer_resize/NaN_ziffer5_2020-04-17_06-00-06.jpg
in: ziffer_raw/NaN_ziffer1_2020-04-16_12-00-06.jpg  -  out: ziffer_resize/NaN_ziffer1_2020-04-16_12-00-06.jpg
dig-s0
a_output_actual/dig-s0
File Exists
Model: "sequential"
_________________________________________________________________
Layer (type)                 Output Shape              Param #   
=================================================================
batch_normalization (BatchNo (None, 32, 20, 3)         12        
_________________________________________________________________
conv2d (Conv2D)              (None, 32, 20, 32)        896       
_________________________________________________________________
max_pooling2d (MaxPooling2D) (None, 16, 10, 32)        0         
_________________________________________________________________
conv2d_1 (Conv2D)            (None, 16, 10, 64)        18496     
_________________________________________________________________
max_pooling2d_1 (MaxPooling2 (None, 8, 5, 64)          0         
_________________________________________________________________
conv2d_2 (Conv2D)            (None, 8, 5, 64)          36928     
_________________________________________________________________
max_pooling2d_2 (MaxPooling2 (None, 4, 2, 64)          0         
_________________________________________________________________
flatten (Flatten)            (None, 512)               0         
_________________________________________________________________
dense (Dense)                (None, 512)               262656    
_________________________________________________________________
dense_1 (Dense)              (None, 11)                5643      
=================================================================
Total params: 324,631
Trainable params: 324,625
Non-trainable params: 6
_________________________________________________________________
1079
(1079, 32, 20, 3)
(1079, 11)
(863, 32, 20, 3)
(216, 32, 20, 3)
Epoch 1/100
  1/216 [..............................] - ETA: 1:49 - loss: 0.0000e+00 - accuracy: 1.0000
…
===========================>.] - ETA: 0s - loss: 0.0293 - accuracy: 0.9903216/216 [==============================] - 1s 6ms/step - loss: 0.0291 - accuracy: 0.9904 - val_loss: 0.0270 - val_accuracy: 0.9954
dig-s0
File Exists
dig-s1
a_output_actual/dig-s1
File Exists
Model: "sequential_1"
_________________________________________________________________
Layer (type)                 Output Shape              Param #   
=================================================================
batch_normalization_1 (Batch (None, 32, 20, 3)         12        
_________________________________________________________________
conv2d_3 (Conv2D)            (None, 32, 20, 32)        896       
_________________________________________________________________
max_pooling2d_3 (MaxPooling2 (None, 16, 10, 32)        0         
_________________________________________________________________
conv2d_4 (Conv2D)            (None, 16, 10, 64)        18496     
_________________________________________________________________
max_pooling2d_4 (MaxPooling2 (None, 8, 5, 64)          0         
_________________________________________________________________
conv2d_5 (Conv2D)            (None, 8, 5, 64)          36928     
_________________________________________________________________
max_pooling2d_5 (MaxPooling2 (None, 4, 2, 64)          0         
_________________________________________________________________
flatten_1 (Flatten)          (None, 512)               0         
_________________________________________________________________
dense_2 (Dense)              (None, 256)               131328    
_________________________________________________________________
dense_3 (Dense)              (None, 11)                2827      
=================================================================
Total params: 190,487
Trainable params: 190,481
Non-trainable params: 6
_________________________________________________________________
1079
(1079, 32, 20, 3)
(1079, 11)
(863, 32, 20, 3)
(216, 32, 20, 3)
Epoch 1/100
  1/216 [..............................] - ETA: 1:18 - loss: 0.0000e+00 - accuracy: 1.0000
…
20220119	1079	99	0.01736629754304886	0.007475349120795727
20220119	1079	100	0.03742352873086929	0.017355293035507202
dig-s1
File Exists
ziffer_resize/0_0_nt1_20210626-090405.jpg 0 -1
ziffer_resize/1 -1_5_20211231-100402.jpg 1 4
ziffer_resize/5_5_ROI4_20210418-173416.jpg 5 -1
ziffer_resize/7_dig6_20220106-182911.jpg 7 1
ziffer_resize/8_dig5_20220106-053708.jpg 8 3
dig-s2
a_output_actual/dig-s2
File Exists
Model: "sequential_2"
_________________________________________________________________
Layer (type)                 Output Shape              Param #   
=================================================================
batch_normalization_2 (Batch (None, 32, 20, 3)         12        
_________________________________________________________________
conv2d_6 (Conv2D)            (None, 32, 20, 32)        896       
_________________________________________________________________
max_pooling2d_6 (MaxPooling2 (None, 16, 10, 32)        0         
_________________________________________________________________
conv2d_7 (Conv2D)            (None, 16, 10, 32)        9248      
_________________________________________________________________
max_pooling2d_7 (MaxPooling2 (None, 8, 5, 32)          0         
_________________________________________________________________
conv2d_8 (Conv2D)            (None, 8, 5, 32)          9248      
_________________________________________________________________
max_pooling2d_8 (MaxPooling2 (None, 4, 2, 32)          0         
_________________________________________________________________
flatten_2 (Flatten)          (None, 256)               0         
_________________________________________________________________
dense_4 (Dense)              (None, 256)               65792     
_________________________________________________________________
dense_5 (Dense)              (None, 11)                2827      
=================================================================
Total params: 88,023
Trainable params: 88,017
Non-trainable params: 6
_________________________________________________________________
1079
(1079, 32, 20, 3)
(1079, 11)
(863, 32, 20, 3)
(216, 32, 20, 3)
Epoch 1/100
  1/216 [..............................] - ETA: 1:16 - loss: 0.0000e+00 - accuracy: 1.0000
…
20220119	1079	100	0.016342487186193466	0.00908300094306469
dig-s2
File Exists
ziffer_resize/3_dig5_20220106-052235.jpg 3 8
ziffer_resize/3_dig5_20220106-052726.jpg 3 8
ziffer_resize/3_dig5_20220106-060123.jpg 3 8
ziffer_resize/6_dig5_20220106-020809.jpg 6 0
ziffer_resize/7.0_dig5_20210923-092147.jpg 7 1
ziffer_resize/NaN_0_ht6_20210628-182853.jpg -1 9
dig-s3
a_output_actual/dig-s3
File Exists
Model: "sequential_3"
_________________________________________________________________
Layer (type)                 Output Shape              Param #   
=================================================================
batch_normalization_3 (Batch (None, 32, 20, 3)         12        
_________________________________________________________________
conv2d_9 (Conv2D)            (None, 32, 20, 32)        896       
_________________________________________________________________
max_pooling2d_9 (MaxPooling2 (None, 16, 10, 32)        0         
_________________________________________________________________
conv2d_10 (Conv2D)           (None, 16, 10, 32)        9248      
_________________________________________________________________
max_pooling2d_10 (MaxPooling (None, 8, 5, 32)          0         
_________________________________________________________________
conv2d_11 (Conv2D)           (None, 8, 5, 32)          9248      
_________________________________________________________________
max_pooling2d_11 (MaxPooling (None, 4, 2, 32)          0         
_________________________________________________________________
flatten_3 (Flatten)          (None, 256)               0         
_________________________________________________________________
dense_6 (Dense)              (None, 128)               32896     
_________________________________________________________________
dense_7 (Dense)              (None, 11)                1419      
=================================================================
Total params: 53,719
Trainable params: 53,713
Non-trainable params: 6
_________________________________________________________________
1079
(1079, 32, 20, 3)
(1079, 11)
(863, 32, 20, 3)
(216, 32, 20, 3)
Epoch 1/100
  1/216 [..............................] - ETA: 1:20 - loss: 5.3644e-07 - accuracy: 1.0000
…
