…
in: ziffer_raw/1_1_20220211.jpg  -  out: ziffer_resize/1_1_20220211.jpg
in: ziffer_raw/NaN_Ziffer_NaN_1140.jpg  -  out: ziffer_resize/NaN_Ziffer_NaN_1140.jpg
in: ziffer_raw/NaN_20200816-092136_digit3.jpg  -  out: ziffer_resize/NaN_20200816-092136_digit3.jpg
in: ziffer_raw/NaN_D8_2020-08-25_04-15-03.jpg  -  out: ziffer_resize/NaN_D8_2020-08-25_04-15-03.jpg
dig-s0
a_output_actual/dig-s0
File Exists
Model: "sequential"
_________________________________________________________________
 Layer (type)                Output Shape              Param #   
=================================================================
 batch_normalization (BatchN  (None, 32, 20, 3)        12        
 ormalization)                                                   
                                                                 
 conv2d (Conv2D)             (None, 32, 20, 32)        896       
                                                                 
 max_pooling2d (MaxPooling2D  (None, 16, 10, 32)       0         
 )                                                               
                                                                 
 conv2d_1 (Conv2D)           (None, 16, 10, 64)        18496     
                                                                 
 max_pooling2d_1 (MaxPooling  (None, 8, 5, 64)         0         
 2D)                                                             
                                                                 
 conv2d_2 (Conv2D)           (None, 8, 5, 64)          36928     
                                                                 
 max_pooling2d_2 (MaxPooling  (None, 4, 2, 64)         0         
 2D)                                                             
                                                                 
 flatten (Flatten)           (None, 512)               0         
                                                                 
 dense (Dense)               (None, 512)               262656    
                                                                 
 dense_1 (Dense)             (None, 11)                5643      
                                                                 
=================================================================
Total params: 324,631
Trainable params: 324,625
Non-trainable params: 6
_________________________________________________________________
1142
(1142, 32, 20, 3)
(1142, 11)
(913, 32, 20, 3)
(229, 32, 20, 3)
Epoch 1/100
  1/229 [..............................] -
…
=========>.] - ETA: 0s - loss: 6.6846e-08 - accuracy: 1.0000229/229 [==============================] - 3s 12ms/step - loss: 6.5674e-08 - accuracy: 1.0000 - val_loss: 2.1801e-06 - val_accuracy: 1.0000
dig-s0
File Exists
dig-s1
a_output_actual/dig-s1
File Exists
Model: "sequential_1"
_________________________________________________________________
 Layer (type)                Output Shape              Param #   
=================================================================
 batch_normalization_1 (Batc  (None, 32, 20, 3)        12        
 hNormalization)                                                 
                                                                 
 conv2d_3 (Conv2D)           (None, 32, 20, 32)        896       
                                                                 
 max_pooling2d_3 (MaxPooling  (None, 16, 10, 32)       0         
 2D)                                                             
                                                                 
 conv2d_4 (Conv2D)           (None, 16, 10, 64)        18496     
                                                                 
 max_pooling2d_4 (MaxPooling  (None, 8, 5, 64)         0         
 2D)                                                             
                                                                 
 conv2d_5 (Conv2D)           (None, 8, 5, 64)          36928     
                                                                 
 max_pooling2d_5 (MaxPooling  (None, 4, 2, 64)         0         
 2D)                                                             
                                                                 
 flatten_1 (Flatten)         (None, 512)               0         
                                                                 
 dense_2 (Dense)             (None, 256)               131328    
                                                                 
 dense_3 (Dense)             (None, 11)                2827      
                                                                 
=================================================================
Total params: 190,487
Trainable params: 190,481
Non-trainable params: 6
_________________________________________________________________
1142
(1142, 32, 20, 3)
(1142, 11)
(913, 32, 20, 3)
(229, 32, 20, 3)
Epoch 1/100
  1/229 [..............................] -
…
20220223	1142	97	0.0019363778410479426	0.0001286006299778819
20220223	1142	98	2.775743951133336e-06	0.07366739213466644
20220223	1142	99	5.17596272402443e-05	0.0020993950311094522
20220223	1142	100	0.0010346167255192995	0.03473608195781708
dig-s1
File Exists
ziffer_resize/6_dig5_20220106-020809.jpg 6 0
ziffer_resize/NaN_0_ht6_20210628-182853.jpg -1 9
dig-s2
a_output_actual/dig-s2
File Exists
Model: "sequential_2"
_________________________________________________________________
 Layer (type)                Output Shape              Param #   
=================================================================
 batch_normalization_2 (Batc  (None, 32, 20, 3)        12        
 hNormalization)                                                 
                                                                 
 conv2d_6 (Conv2D)           (None, 32, 20, 32)        896       
                                                                 
 max_pooling2d_6 (MaxPooling  (None, 16, 10, 32)       0         
 2D)                                                             
                                                                 
 conv2d_7 (Conv2D)           (None, 16, 10, 32)        9248      
                                                                 
 max_pooling2d_7 (MaxPooling  (None, 8, 5, 32)         0         
 2D)                                                             
                                                                 
 conv2d_8 (Conv2D)           (None, 8, 5, 32)          9248      
                                                                 
 max_pooling2d_8 (MaxPooling  (None, 4, 2, 32)         0         
 2D)                                                             
                                                                 
 flatten_2 (Flatten)         (None, 256)               0         
                                                                 
 dense_4 (Dense)             (None, 256)               65792     
                                                                 
 dense_5 (Dense)             (None, 11)                2827      
                                                                 
=================================================================
Total params: 88,023
Trainable params: 88,017
Non-trainable params: 6
_________________________________________________________________
1142
(1142, 32, 20, 3)
(1142, 11)
(913, 32, 20, 3)
(229, 32, 20, 3)
Epoch 1/100
  1/229 [..............................] - E
…
20220223	1142	97	1.4716838450112846e-05	6.863963790237904e-05
20220223	1142	98	2.972707989101764e-06	0.016401071101427078
20220223	1142	99	0.0004236872773617506	0.019149266183376312
20220223	1142	100	0.00030262937070801854	0.013368663378059864
dig-s2
File Exists
ziffer_resize/6_dig5_20220106-020809.jpg 6 0
dig-s3
a_output_actual/dig-s3
File Exists
Model: "sequential_3"
_________________________________________________________________
 Layer (type)                Output Shape              Param #   
=================================================================
 batch_normalization_3 (Batc  (None, 32, 20, 3)        12        
 hNormalization)                                                 
                                                                 
 conv2d_9 (Conv2D)           (None, 32, 20, 32)        896       
                                                                 
 max_pooling2d_9 (MaxPooling  (None, 16, 10, 32)       0         
 2D)                                                             
                                                                 
 conv2d_10 (Conv2D)          (None, 16, 10, 32)        9248      
                                                                 
 max_pooling2d_10 (MaxPoolin  (None, 8, 5, 32)         0         
 g2D)                                                            
                                                                 
 conv2d_11 (Conv2D)          (None, 8, 5, 32)          9248      
                                                                 
 max_pooling2d_11 (MaxPoolin  (None, 4, 2, 32)         0         
 g2D)                                                            
                                                                 
 flatten_3 (Flatten)         (None, 256)               0         
                                                                 
 dense_6 (Dense)             (None, 128)               32896     
                                                                 
 dense_7 (Dense)             (None, 11)                1419      
                                                                 
=================================================================
Total params: 53,719
Trainable params: 53,713
Non-trainable params: 6
_________________________________________________________________
1142
(1142, 32, 20, 3)
(1142, 11)
(913, 32, 20, 3)
(229, 32, 20, 3)
Epoch 1/100
  1/229 [..............................] - E
…
