…
in: ziffer_raw/NaN_D8_2020-08-22_03-49-58.jpg  -  out: ziffer_resize/NaN_D8_2020-08-22_03-49-58.jpg
in: ziffer_raw/0_0_nt1_20210625-212553.jpg  -  out: ziffer_resize/0_0_nt1_20210625-212553.jpg
in: ziffer_raw/NaN_20200911-174027_ROI5.jpg  -  out: ziffer_resize/NaN_20200911-174027_ROI5.jpg
in: ziffer_raw/NaN_D8_2020-08-24_16-45-06.jpg  -  out: ziffer_resize/NaN_D8_2020-08-24_16-45-06.jpg
dig-s0
a_output_actual/dig-s0
File Exists
Model: "sequential"
_________________________________________________________________
 Layer (type)                Output Shape              Param #   
=================================================================
 batch_normalization (BatchN  (None, 32, 20, 3)        12        
 ormalization)                                                   
                                                                 
 conv2d (Conv2D)             (None, 32, 20, 32)        896       
                                                                 
 max_pooling2d (MaxPooling2D  (None, 16, 10, 32)       0         
 )                                                               
                                                                 
 conv2d_1 (Conv2D)           (None, 16, 10, 64)        18496     
                                                                 
 max_pooling2d_1 (MaxPooling  (None, 8, 5, 64)         0         
 2D)                                                             
                                                                 
 conv2d_2 (Conv2D)           (None, 8, 5, 64)          36928     
                                                                 
 max_pooling2d_2 (MaxPooling  (None, 4, 2, 64)         0         
 2D)                                                             
                                                                 
 flatten (Flatten)           (None, 512)               0         
                                                                 
 dense (Dense)               (None, 512)               262656    
                                                                 
 dense_1 (Dense)             (None, 11)                5643      
                                                                 
=================================================================
Total params: 324,631
Trainable params: 324,625
Non-trainable params: 6
_________________________________________________________________
1186
(1186, 32, 20, 3)
(1186, 11)
(948, 32, 20, 3)
(238, 32, 20, 3)
Epoch 1/100
  1/237 [..............................] -
…
237/237 [==============================] - 2s 10ms/step - loss: 3.9650e-06 - accuracy: 1.0000 - val_loss: 1.2658e-05 - val_accuracy: 1.0000
dig-s0
File Exists
ziffer_resize/0_litre3_20220312-060001.jpg 0 8
ziffer_resize/3_0_ht4_20210701-194658.jpg 3 9
dig-s1
a_output_actual/dig-s1
File Exists
Model: "sequential_1"
_________________________________________________________________
 Layer (type)                Output Shape              Param #   
=================================================================
 batch_normalization_1 (Batc  (None, 32, 20, 3)        12        
 hNormalization)                                                 
                                                                 
 conv2d_3 (Conv2D)           (None, 32, 20, 32)        896       
                                                                 
 max_pooling2d_3 (MaxPooling  (None, 16, 10, 32)       0         
 2D)                                                             
                                                                 
 conv2d_4 (Conv2D)           (None, 16, 10, 64)        18496     
                                                                 
 max_pooling2d_4 (MaxPooling  (None, 8, 5, 64)         0         
 2D)                                                             
                                                                 
 conv2d_5 (Conv2D)           (None, 8, 5, 64)          36928     
                                                                 
 max_pooling2d_5 (MaxPooling  (None, 4, 2, 64)         0         
 2D)                                                             
                                                                 
 flatten_1 (Flatten)         (None, 512)               0         
                                                                 
 dense_2 (Dense)             (None, 256)               131328    
                                                                 
 dense_3 (Dense)             (None, 11)                2827      
                                                                 
=================================================================
Total params: 190,487
Trainable params: 190,481
Non-trainable params: 6
_________________________________________________________________
1186
(1186, 32, 20, 3)
(1186, 11)
(948, 32, 20, 3)
(238, 32, 20, 3)
Epoch 1/100
  1/237 [..............................] -
…
20220424	1186	96	0.013170289807021618	0.005506576970219612
20220424	1186	97	4.359396825748263e-06	0.028472069650888443
20220424	1186	98	0.0359652005136013	0.0431874617934227
20220424	1186	99	0.011088650673627853	0.1455528885126114
20220424	1186	100	0.03060629405081272	0.053561046719551086
dig-s1
File Exists
ziffer_resize/1_1_a.jpg 1 3
dig-s2
a_output_actual/dig-s2
File Exists
Model: "sequential_2"
_________________________________________________________________
 Layer (type)                Output Shape              Param #   
=================================================================
 batch_normalization_2 (Batc  (None, 32, 20, 3)        12        
 hNormalization)                                                 
                                                                 
 conv2d_6 (Conv2D)           (None, 32, 20, 32)        896       
                                                                 
 max_pooling2d_6 (MaxPooling  (None, 16, 10, 32)       0         
 2D)                                                             
                                                                 
 conv2d_7 (Conv2D)           (None, 16, 10, 32)        9248      
                                                                 
 max_pooling2d_7 (MaxPooling  (None, 8, 5, 32)         0         
 2D)                                                             
                                                                 
 conv2d_8 (Conv2D)           (None, 8, 5, 32)          9248      
                                                                 
 max_pooling2d_8 (MaxPooling  (None, 4, 2, 32)         0         
 2D)                                                             
                                                                 
 flatten_2 (Flatten)         (None, 256)               0         
                                                                 
 dense_4 (Dense)             (None, 256)               65792     
                                                                 
 dense_5 (Dense)             (None, 11)                2827      
                                                                 
=================================================================
Total params: 88,023
Trainable params: 88,017
Non-trainable params: 6
_________________________________________________________________
1186
(1186, 32, 20, 3)
(1186, 11)
(948, 32, 20, 3)
(238, 32, 20, 3)
Epoch 1/100
  1/237 [..............................] - E
…
20220424	1186	97	0.03437526896595955	0.08581595867872238
20220424	1186	98	0.00019730748317670077	0.004657396115362644
20220424	1186	99	3.570371700334363e-05	0.03973231837153435
20220424	1186	100	1.5298599464586005e-05	0.05704851821064949
dig-s2
File Exists
ziffer_resize/9_D8_2020-08-20_11-32-19.jpg 9 -1
ziffer_resize/9_litre2_20220312-060001.jpg 9 7
dig-s3
a_output_actual/dig-s3
File Exists
Model: "sequential_3"
_________________________________________________________________
 Layer (type)                Output Shape              Param #   
=================================================================
 batch_normalization_3 (Batc  (None, 32, 20, 3)        12        
 hNormalization)                                                 
                                                                 
 conv2d_9 (Conv2D)           (None, 32, 20, 32)        896       
                                                                 
 max_pooling2d_9 (MaxPooling  (None, 16, 10, 32)       0         
 2D)                                                             
                                                                 
 conv2d_10 (Conv2D)          (None, 16, 10, 32)        9248      
                                                                 
 max_pooling2d_10 (MaxPoolin  (None, 8, 5, 32)         0         
 g2D)                                                            
                                                                 
 conv2d_11 (Conv2D)          (None, 8, 5, 32)          9248      
                                                                 
 max_pooling2d_11 (MaxPoolin  (None, 4, 2, 32)         0         
 g2D)                                                            
                                                                 
 flatten_3 (Flatten)         (None, 256)               0         
                                                                 
 dense_6 (Dense)             (None, 128)               32896     
                                                                 
 dense_7 (Dense)             (None, 11)                1419      
                                                                 
=================================================================
Total params: 53,719
Trainable params: 53,713
Non-trainable params: 6
_________________________________________________________________
1186
(1186, 32, 20, 3)
(1186, 11)
(948, 32, 20, 3)
(238, 32, 20, 3)
Epoch 1/100
  1/237 [..............................] - E
…
