…
in: ziffer_raw/4_4_digit3_20210424-160317.jpg  -  out: ziffer_resize/4_4_digit3_20210424-160317.jpg
in: ziffer_raw/7_7_nt6_20210626-043348.jpg  -  out: ziffer_resize/7_7_nt6_20210626-043348.jpg
in: ziffer_raw/7_7_digit4_20210414-180055.jpg  -  out: ziffer_resize/7_7_digit4_20210414-180055.jpg
in: ziffer_raw/7.0_github417.jpg  -  out: ziffer_resize/7.0_github417.jpg
dig-s0
a_output_actual/dig-s0
File Exists
Model: "sequential"
_________________________________________________________________
Layer (type)                 Output Shape              Param #   
=================================================================
batch_normalization (BatchNo (None, 32, 20, 3)         12        
_________________________________________________________________
conv2d (Conv2D)              (None, 32, 20, 32)        896       
_________________________________________________________________
max_pooling2d (MaxPooling2D) (None, 16, 10, 32)        0         
_________________________________________________________________
conv2d_1 (Conv2D)            (None, 16, 10, 64)        18496     
_________________________________________________________________
max_pooling2d_1 (MaxPooling2 (None, 8, 5, 64)          0         
_________________________________________________________________
conv2d_2 (Conv2D)            (None, 8, 5, 64)          36928     
_________________________________________________________________
max_pooling2d_2 (MaxPooling2 (None, 4, 2, 64)          0         
_________________________________________________________________
flatten (Flatten)            (None, 512)               0         
_________________________________________________________________
dense (Dense)                (None, 512)               262656    
_________________________________________________________________
dense_1 (Dense)              (None, 11)                5643      
=================================================================
Total params: 324,631
Trainable params: 324,625
Non-trainable params: 6
_________________________________________________________________
1099
(1099, 32, 20, 3)
(1099, 11)
(879, 32, 20, 3)
(220, 32, 20, 3)
Epoch 1/100
  1/220 [..............................] - ETA: 1:36 - loss: 0.0000e+00 - accuracy: 1.0000
…
: 0.0080 - accuracy: 0.9993220/220 [==============================] - 1s 7ms/step - loss: 0.0086 - accuracy: 0.9992 - val_loss: 7.6844e-06 - val_accuracy: 1.0000
dig-s0
File Exists
ziffer_resize/NaN_Ziffer_NaN_0743.jpg -1 9
dig-s1
a_output_actual/dig-s1
File Exists
Model: "sequential_1"
_________________________________________________________________
Layer (type)                 Output Shape              Param #   
=================================================================
batch_normalization_1 (Batch (None, 32, 20, 3)         12        
_________________________________________________________________
conv2d_3 (Conv2D)            (None, 32, 20, 32)        896       
_________________________________________________________________
max_pooling2d_3 (MaxPooling2 (None, 16, 10, 32)        0         
_________________________________________________________________
conv2d_4 (Conv2D)            (None, 16, 10, 64)        18496     
_________________________________________________________________
max_pooling2d_4 (MaxPooling2 (None, 8, 5, 64)          0         
_________________________________________________________________
conv2d_5 (Conv2D)            (None, 8, 5, 64)          36928     
_________________________________________________________________
max_pooling2d_5 (MaxPooling2 (None, 4, 2, 64)          0         
_________________________________________________________________
flatten_1 (Flatten)          (None, 512)               0         
_________________________________________________________________
dense_2 (Dense)              (None, 256)               131328    
_________________________________________________________________
dense_3 (Dense)              (None, 11)                2827      
=================================================================
Total params: 190,487
Trainable params: 190,481
Non-trainable params: 6
_________________________________________________________________
1099
(1099, 32, 20, 3)
(1099, 11)
(879, 32, 20, 3)
(220, 32, 20, 3)
Epoch 1/100
  1/220 [..............................] - ETA: 1:19 - loss: 0.0000e+00 - accuracy: 1.0000
…
20220206	1099	97	0.005501902662217617	0.07604441791772842
20220206	1099	98	0.005233746021986008	0.0014409611467272043
20220206	1099	99	9.207038829117664e-07	0.023479526862502098
20220206	1099	100	2.1318750498267036e-07	0.020445628091692924
dig-s1
File Exists
ziffer_resize/6_dig5_20220106-020809.jpg 6 0
ziffer_resize/6_dig6_20220106-071435.jpg 6 0
dig-s2
a_output_actual/dig-s2
File Exists
Model: "sequential_2"
_________________________________________________________________
Layer (type)                 Output Shape              Param #   
=================================================================
batch_normalization_2 (Batch (None, 32, 20, 3)         12        
_________________________________________________________________
conv2d_6 (Conv2D)            (None, 32, 20, 32)        896       
_________________________________________________________________
max_pooling2d_6 (MaxPooling2 (None, 16, 10, 32)        0         
_________________________________________________________________
conv2d_7 (Conv2D)            (None, 16, 10, 32)        9248      
_________________________________________________________________
max_pooling2d_7 (MaxPooling2 (None, 8, 5, 32)          0         
_________________________________________________________________
conv2d_8 (Conv2D)            (None, 8, 5, 32)          9248      
_________________________________________________________________
max_pooling2d_8 (MaxPooling2 (None, 4, 2, 32)          0         
_________________________________________________________________
flatten_2 (Flatten)          (None, 256)               0         
_________________________________________________________________
dense_4 (Dense)              (None, 256)               65792     
_________________________________________________________________
dense_5 (Dense)              (None, 11)                2827      
=================================================================
Total params: 88,023
Trainable params: 88,017
Non-trainable params: 6
_________________________________________________________________
1099
(1099, 32, 20, 3)
(1099, 11)
(879, 32, 20, 3)
(220, 32, 20, 3)
Epoch 1/100
  1/220 [..............................] - ETA: 1:19 - loss: 0.0000e+00 - accuracy: 1.0000
…
20220206	1099	99	0.008054541423916817	0.15048252046108246
20220206	1099	100	0.006919726729393005	0.1378510743379593
dig-s2
File Exists
ziffer_resize/3_main_dig5.jpg 3 8
ziffer_resize/6_dig5_20220106-020809.jpg 6 0
ziffer_resize/8- 8_6_20211231-082402.jpg 8 0
ziffer_resize/NaN_6_dig6_20210720-121946.jpg -1 4
dig-s3
a_output_actual/dig-s3
File Exists
Model: "sequential_3"
_________________________________________________________________
Layer (type)                 Output Shape              Param #   
=================================================================
batch_normalization_3 (Batch (None, 32, 20, 3)         12        
_________________________________________________________________
conv2d_9 (Conv2D)            (None, 32, 20, 32)        896       
_________________________________________________________________
max_pooling2d_9 (MaxPooling2 (None, 16, 10, 32)        0         
_________________________________________________________________
conv2d_10 (Conv2D)           (None, 16, 10, 32)        9248      
_________________________________________________________________
max_pooling2d_10 (MaxPooling (None, 8, 5, 32)          0         
_________________________________________________________________
conv2d_11 (Conv2D)           (None, 8, 5, 32)          9248      
_________________________________________________________________
max_pooling2d_11 (MaxPooling (None, 4, 2, 32)          0         
_________________________________________________________________
flatten_3 (Flatten)          (None, 256)               0         
_________________________________________________________________
dense_6 (Dense)              (None, 128)               32896     
_________________________________________________________________
dense_7 (Dense)              (None, 11)                1419      
=================================================================
Total params: 53,719
Trainable params: 53,713
Non-trainable params: 6
_________________________________________________________________
1099
(1099, 32, 20, 3)
(1099, 11)
(879, 32, 20, 3)
(220, 32, 20, 3)
Epoch 1/100
  1/220 [..............................] - ETA: 1:19 - loss: 2.7418e-06 - accuracy: 1.0000
…
